models/lenet_mnist.pth (torch, 250672 bytes, 10 tensors)

features.0.weight f4 [6, 1, 5, 5]
000000 d4 16 51 bd 11 b1 bb 3c ba 8e 69 bb ad 92 06 3d
       -0.05104716 0.02291158 -0.003563805 0.032854725
000010 f6 ba 89 3e 12 5c 6e 3e 9c 30 39 3d 4c db 78 3e
       0.26900452 0.2327731 0.045212373 0.24302405
000020 3e 69 d4 3e 7c b2 db 3e f5 2d be 3e 7b 10 80 3e
       0.41486543 0.4290961 0.37144437 0.25012574
000030 1f 39 1e 3f 92 48 0d 3f 4d 97 91 3e 00 10 34 3d
       0.6180591 0.5518886 0.28435746 0.04396057
000040 6c 44 76 3e ba 99 03 3f a1 9a c1 3e 14 74 8b 3d
       0.24049538 0.51406443 0.37813285 0.068092495
000050 30 ea eb bd 60 05 fc bd 26 a2 0e be 7c 08 8d 3d
       -0.11519277 -0.12305713 -0.13929042 0.06886384
000060 84 a3 87 3e 17 06 25 3e 93 a9 d7 3d ef b0 01 3e
       0.2649194 0.16115604 0.105303906 0.12665151
000070 b6 4a c6 bd 3a 04 99 3c 4a 6f 39 3e 89 d4 70 3e
       -0.09682219 0.018678773 0.1810886 0.23518576
000080 8b 93 15 bd 58 a1 14 be 4c 2d 78 bd 7d 2b c9 3d
       -0.03651766 -0.14514673 -0.060590073 0.09822748
000090 66 dc 29 3e 21 9b 78 3d a7 f3 3c be 97 6c 00 be
       0.16587982 0.060694817 -0.18452321 -0.12541424
0000a0 c7 03 a0 3e 25 ed 4e 3e f4 0b 06 be 90 ee 7a be
       0.31252882 0.20207651 -0.13090497 -0.24505067
0000b0 60 ba ca bb 2a d7 73 3e 34 62 28 3d 7f 99 74 bd
       -0.0061867684 0.23812547 0.04110928 -0.059716698
0000c0 e7 a5 c5 bd 96 66 48 be 8c f6 2d be 7e 78 4a 3e
       -0.09650784 -0.19570383 -0.16988581 0.19772527
0000d0 11 1a 05 be 28 1f 7c bb 9c d1 fd 3b 5d 5d a9 bd
       -0.12998225 -0.003847072 0.0077459347 -0.08269761
0000e0 31 1b fe 3d a6 2c 97 bb e2 a1 35 bd ad 13 d4 3b
       0.1240753 -0.004613477 -0.044343837 0.006472072
0000f0 25 2b 5d 3e f1 68 e6 3d 58 0d 03 3f 9b 03 e8 3e
       0.2159849 0.11250485 0.51192236 0.4531525
000100 07 8b 7b 3e 05 07 a7 3e 6c 91 10 3f df 6e af 3e
       0.24564753 0.32622543 0.56471896 0.34264275
000110 4b 57 f9 3e 0e 69 25 3e ad 2d c6 3e 5b ba f1 3d
       0.48699412 0.16153356 0.38706723 0.118031226
000120 57 81 ff bd 4e a6 9d 3e 4f 76 9f 3c 03 c6 65 3e
       -0.124758415 0.30790943 0.019465594 0.22438817
000130 e0 0e 00 bd fa 60 9e be 06 e2 66 be 41 3c ab be
       -0.031264186 -0.30933362 -0.22547159 -0.33444408
000140 c6 8a f8 3e 05 38 ac 3e 8b b4 ae bd 56 94 49 be
       0.48543376 0.3363649 -0.085305296 -0.19685492
000150 0a ad 85 be 9f f4 cf 3e cf 27 0f 3f f5 da 07 3f
       -0.2610858 0.4061632 0.5592012 0.53068477
000160 e1 8f bc 3e f6 3c a4 3e d8 9d e2 bc 48 36 d8 3e
       0.3682852 0.3207776 -0.027663156 0.42228913
000170 e7 ad 0e 3f 8d e3 0c 3f a7 33 0f 3f d2 08 87 be
       0.55734104 0.55034715 0.5593819 -0.26373917
000180 d4 19 ca bc dd ff 71 bc b4 b0 50 3e 98 95 aa bc
       -0.024670519 -0.014770475 0.20379907 -0.020823285
000190 a2 08 46 3b 5e b0 ef 3b c0 84 d4 3e ad 03 fb 3e
       0.0030217548 0.007314726 0.4150753 0.49026242
0001a0 e0 f5 29 bd 27 a8 54 be 15 2a a6 3e fa 8c 32 3f
       -0.04149425 -0.2076727 0.3245398 0.69746363
0001b0 7e 2c 13 3f 0f fe 8b 3e 04 aa 11 3e e8 f6 ab 3e
       0.57489765 0.2734227 0.14225012 0.33586812
0001c0 1e a7 0d 3f 92 5e 71 3e 5a 36 cf bc 2a 81 17 3d
       0.55333126 0.23571232 -0.025294472 0.036988415
0001d0 ef 86 c6 3e c3 f9 a1 3e 21 7e 8c 3e cf 86 58 3e
       0.3877482 0.31635866 0.2743998 0.21145175
0001e0 f4 ed 7a bb ff c9 06 bc e9 f9 25 3e 73 2c 0d be
       -0.0038288804 -0.008226871 0.16208614 -0.13786487
0001f0 b4 cb 8d be 95 69 43 be ec 04 1f bd 8d 05 2c 3e
       -0.27694476 -0.19083245 -0.038823053 0.16798992
000200 a4 6b ae 3e 2a 24 af 3e 9f 19 04 be 0c 2a 10 be
       0.34066498 0.34207278 -0.12900399 -0.1407854
000210 19 87 c8 3d f3 bd 04 3f a6 d1 b0 3e 9e af b5 bd
       0.09791393 0.5185234 0.3453495 -0.08871387
000220 d3 81 44 be b0 18 c4 3e 50 79 8d 3e 8e a2 55 3e
       -0.19190149 0.38300085 0.27631617 0.20862791
000230 01 58 25 be 5b 10 37 3d 0b d8 97 3e 11 3c 2e 3e
       -0.16146852 0.044693332 0.29657015 0.17015101
000240 ba d0 eb 3c 25 25 8a be f2 6b d8 bb 93 e7 11 3e
       0.028786052 -0.26981464 -0.006604665 0.14248495
000250 8b 8a c3 3e 50 a6 7a 3d
       0.38191637 0.061193764

features.0.bias f4 [6]
000000 fe b2 17 39 04 f9 1a be e9 29 28 39 65 31 0e 3e
       0.00014467162 -0.15134054 0.00016037341 0.1388603
000010 d5 d7 9d 38 98 4b 1b bd
       7.526545e-05 -0.03791389

features.3.weight f4 [16, 6, 5, 5]
000000 e3 62 69 3d 34 b4 a5 bc 82 68 13 3d e1 4d b3 39
       0.05697907 -0.02022753 0.03598834 0.00034199565
000010 47 80 fb bc 94 d5 ca 3c 28 5f 27 3e 30 62 23 3e
       -0.030700816 0.024760045 0.16344893 0.15955424
000020 cc e7 8c 3d 64 be 68 bd cd a3 ab bc f5 87 53 bc
       0.06880149 -0.056822196 -0.02095213 -0.012910833
000030 3a a5 76 3d d2 3b 31 3e 06 aa 52 3d 0b 39 d2 bd
       0.060216166 0.17307976 0.05143168 -0.10264786
000040 93 f9 b2 bd ff ec f3 bc 0c 65 93 3c ba d7 37 3c
       -0.08739009 -0.029776094 0.017992519 0.011220867
000050 de d7 13 3d d5 19 29 be 41 f1 38 be ae 04 41 be
       0.03609454 -0.1651376 -0.18060781 -0.18849441
000060 f1 13 bb bd 68 df 93 3d 3e a9 ee bc 50 1b 04 3d
       -0.09134663 0.07220346 -0.029133435 0.03225261
000070 a6 6e eb 3c 16 25 e1 3c 0a bb 8d bd cb 15 37 3d
       0.028739285 0.027483504 -0.069204405 0.044698518
000080 94 39 69 3d 5a c5 7d 3d 5a 42 fa bc 1a 07 85 bd
       0.056939676 0.061955787 -0.030549217 -0.06495495
000090 33 8c 17 bd 7a b8 ca bd 22 1b cc 3b 03 b2 d3 bc
       -0.03699894 -0.09898467 0.0062288204 -0.025841719
0000a0 fb fd 60 bc 66 97 b0 bd 13 68 2b bd 33 79 52 bd
       -0.013732429 -0.08622627 -0.0418473 -0.051385116
0000b0 5a e7 f1 3c fc d2 95 bc 1c 7d 74 bd 22 46 4a bd
       0.029529262 -0.018289082 -0.059689626 -0.04938329
0000c0 9e 29 5a bd eb 44 18 3c 6f 2e a2 bd 31 2f 18 bd
       -0.053262345 0.009293775 -0.07919013 -0.03715438
0000d0 0a ed 0c 3c a3 05 02 bd a2 ad 8d bd 3f ca 8b bd
       0.008601436 -0.031743657 -0.069178835 -0.06825685
0000e0 10 ea cd 3d 51 78 91 3d 8a 09 2d 3c a6 f4 a4 3d
       0.100544095 0.07103027 0.010561356 0.080544755
0000f0 b5 50 ff bd 3c 4d 9f bd 86 26 4f 3d 6d de 17 3e
       -0.124665655 -0.07778403 0.05057385 0.14830942
000100 c8 ed 45 3d 14 12 ed bd cb 90 21 be 59 a3 d8 bd
       0.04832247 -0.11575714 -0.1577789 -0.10578031
000110 47 c8 08 3c 24 52 b7 bd 33 7a 24 bd f1 a4 63 3d
       0.008348531 -0.08951214 -0.0401556 0.055577222
000120 84 a1 dc bd 96 4d 1a bd bb 65 39 3b 02 12 4d 3c
       -0.10772994 -0.037671648 0.0028289396 0.0125165
000130 88 46 ef 3d f3 ab 0b 3e fe 95 1b bd 62 f8 7d bd
       0.11683375 0.13639812 -0.03798484 -0.062004454
000140 2c c9 44 bc 67 c1 ee 3d 41 9b 7f 3e 44 a8 4f 3e
       -0.012010854 0.11657982 0.24961568 0.20279032
000150 e1 45 a1 3d a7 14 10 be 29 12 a5 bd 45 07 71 3e
       0.078746565 -0.14070378 -0.080601044 0.2353793
000160 b1 e0 a3 3e dd 39 2c 3e 9b 72 b0 bc c7 52 2a be
       0.32007363 0.16818948 -0.021539023 -0.1663314
000170 de 03 79 bd 1d d8 87 bd 9e 67 72 3c 45 62 81 3d
       -0.060794704 -0.06633017 0.014795212 0.063175716
000180 96 89 34 bc 01 1c 8f bd 35 ca 0e be a5 00 ea bb
       -0.011019131 -0.06987763 -0.13944323 -0.00714119
000190 81 45 86 bd 90 7e 9a 3d 54 07 83 bd de ff bf bb
       -0.065562256 0.07543671 -0.06397882 -0.005859359
0001a0 dd e2 0b be c0 8b 3f bd 0f 0b ce 3d 47 f5 e2 3d
       -0.1366076 -0.046764135 0.10060703 0.11081939
0001b0 33 61 a7 bc cd 72 55 3d e3 ba d7 bd 4e 3f 2e 3d
       -0.02043209 0.052111436 -0.10533693 0.04254084
0001c0 91 c0 18 3e 5a 43 c5 3d 56 4d d4 3c 10 31 42 be
       0.14917208 0.09631987 0.025915783 -0.18964028
0001d0 b0 e9 ea bd b3 26 6d 3d 48 da 0f bd 0b aa db bd
       -0.114703536 0.057898235 -0.03512028 -0.107257925
0001e0 72 b4 b0 bd 7e 3a ad bc a8 a3 94 bd 00 dd 4d be
       -0.08628167 -0.021146055 -0.072577775 -0.20103836
0001f0 a2 e9 0f be e8 2d 1a 3d b9 a3 41 3c d2 a6 b7 bc
       -0.14053968 0.037641436 0.01181882 -0.022418413
000200 01 cd 9d bd 06 e2 1c 3c 42 2f d9 bc 74 62 e8 3d
       -0.07705117 0.009575373 -0.026511792 0.113469034
000210 77 d3 09 3b 53 72 17 bd a0 ec 22 3d 3f 61 00 3d
       0.0021030584 -0.036974262 0.039776444 0.03134274
000220 07 13 2c 3b 42 43 2b 3d d0 46 5e 3d ad fc 06 3d
       0.0026256458 0.04181219 0.05426675 0.032955814
000230 12 6a c6 bd 53 7c 89 3c 3b 0e 87 bd 91 c8 6e 3d
       -0.096882 0.016782915 -0.06594511 0.058296744
000240 06 4f 52 3c 02 c8 34 3d 95 73 b6 bd e9 a8 c2 bd
       0.0128362235 0.044136055 -0.08908764 -0.09504873
000250 e3 14 cd bd 9b 96 1b bd 23 1d 8c bd 94 09 22 bd
       -0.100137495 -0.037985425 -0.06841495 -0.039559916
000260 8f 44 f1 3d 99 7c de 3c 4b e4 57 bc 46 c0 e1 bc
       0.11780655 0.027159022 -0.013176988 -0.027557503
000270 17 de f5 bd 06 49 64 be db af 76 be 86 05 fa bd
       -0.12005251 -0.22293481 -0.24090521 -0.12208085
000280 2f ca 6b bd e2 4c 1c be 5e 40 dc bd 61 69 52 3c
       -0.057565864 -0.15263703 -0.107544646 0.012842507
000290 43 77 52 3d 7c 3f 2f 3e 1b 4a 40 3e 7f 1e 93 3e
       0.051383268 0.17114061 0.18778269 0.28734204
0002a0 e5 6b 7f 3e 2b 95 18 3e 2b 37 87 bd de 6e 87 3d
       0.24943502 0.14900653 -0.06602319 0.06612943
0002b0 76 a4 81 bc 04 48 7c bd 47 8f e9 bd d0 49 22 3d
       -0.015825491 -0.061592117 -0.11404281 0.039621174
0002c0 45 f5 57 3c 6c 69 e4 3c 1b b8 7b bd 1d fb 86 3c
       0.013181035 0.0278823 -0.061454874 0.016477162
0002d0 6a 1a e7 bc cd 68 8b bd 09 5c 7e bc 7b 92 82 bc
       -0.028210837 -0.068070985 -0.015524873 -0.015938988
0002e0 9f c2 c4 bd 32 0a 99 bd 16 a4 8d bd 3f c4 5a 3c
       -0.096074335 -0.07472648 -0.069160625 0.013352453
0002f0 f7 a8 c6 bd 05 72 c6 bd 63 24 b6 bc 00 a4 f9 bd
       -0.09700196 -0.09689716 -0.022234147 -0.12189484
000300 e6 96 75 bd 2c 3c 18 bd f6 65 0d be 4e e8 9f 3d
       -0.05995836 -0.03716676 -0.13808426 0.078079805
000310 26 9f d5 bd f8 9b 11 be 26 b0 10 be f6 47 20 bd
       -0.10430746 -0.14219654 -0.14129695 -0.039131127
000320 b2 a0 00 3c da 74 35 bc 0a a0 83 3a e9 d1 9d bd
       0.007850813 -0.011075223 0.0010042202 -0.07706053
000330 7b f3 07 bd f7 1b d6 bc 25 c7 eb bd 94 9e 38 be
       -0.033191185 -0.026136382 -0.11512593 -0.18029243
000340 a3 09 59 be 38 00 21 be 6c c2 5e bd fa eb 57 3d
       -0.21195082 -0.1572274 -0.054384634 0.05271528
000350 75 b3 92 bc 5f 9f 64 3e 26 df 14 3e e9 ce db 3d
       -0.017907837 0.2232642 0.1453825 0.10732824
000360 a6 62 7a 3e 3f a8 9f 3e 0d bf f1 3d 10 3a b2 bc
       0.24451694 0.3118305 0.11804018 -0.021756202
000370 64 23 98 bd 89 9a 00 be cb 41 8f be 74 9b 4c be
       -0.07428625 -0.1255895 -0.27979884 -0.19981176
000380 5e e2 05 be 0e 07 d2 bd 17 b9 4b bd a4 c5 83 bd
       -0.13074633 -0.10255252 -0.049737062 -0.06434181
000390 e7 c1 21 3c c2 b7 68 3d 92 34 58 3b db 08 c4 bd
       0.00987289 0.05681587 0.0032990319 -0.095720015
0003a0 a0 c9 15 be 93 ce 12 be be 41 2b bd eb b6 c3 3d
       -0.14627695 -0.14336614 -0.041810744 0.09556373
0003b0 18 26 0c 3c 76 17 a8 3d 83 ab 79 3d 1b 89 2c 3e
       0.008554004 0.082076 0.060954582 0.16849177
0003c0 45 63 aa 3e 85 50 d0 3e 5d d9 9c 3e 3c c2 67 3e
       0.33278862 0.40686432 0.30634585 0.22632688
0003d0 f7 cc 1b 3e bb 1c a8 bb 32 1c fd bc e9 b4 d5 bd
       0.15214907 -0.005130378 -0.030897234 -0.104348965
0003e0 fe 94 48 bd c7 44 3a 3d 59 9f ce 3a 6f 2a 19 3e
       -0.048970215 0.045475747 0.0015764042 0.14957593
0003f0 5d 9e 06 3e 4b 7d 96 3d d0 16 20 3d f4 a4 86 bd
       0.13146348 0.073481165 0.039084256 -0.06574431

features.3.bias f4 [16]
000000 61 5d 5a bc 88 2a 8d 3d 53 28 17 3d 5c c4 97 bc
       -0.013327927 0.06892878 0.03690369 -0.018526249
000010 3c ca 89 bd d3 1a b6 bd 03 ba 99 bd f7 85 ab bc
       -0.06728026 -0.08891835 -0.07506182 -0.020937903
000020 63 a9 57 bd 50 73 36 3d e4 c7 2e 3c d9 84 fb 3b
       -0.052651774 0.044543564 0.010667775 0.007675749
000030 2b b9 5d bc c6 d5 5f bd 30 fe 43 be 5b e4 7e bd
       -0.013532917 -0.05464723 -0.19139934 -0.062229495

features.7.weight f4 [120, 400]
000000 f7 1f d4 3c 58 61 50 3d e9 e0 36 bc 93 ad 82 3d
       0.025894148 0.050874084 -0.011162021 0.06380763
000010 4f 97 e7 bb 2a 5d ad bb 9d fc 56 bc 88 6c 34 bd
       -0.007067598 -0.005290647 -0.013121751 -0.044048816
000020 c7 98 48 3d 27 bc da bc ad 71 a9 3c 9e b0 f2 bc
       0.048973825 -0.026701046 0.020684088 -0.029625233
000030 7b 73 26 bd e2 3d fc 3c 2e 12 0b bd 0e 1f f5 bc
       -0.040637475 0.030791227 -0.033952884 -0.029922035
000040 be 17 44 bc 6b 7f 82 bc 95 e9 9a bd 3d 1e 75 bd
       -0.011968551 -0.015929898 -0.075640835 -0.05984329
000050 39 4e 50 3d d2 61 3c bc 56 da 17 bb 99 aa 91 3d
       0.05085585 -0.011497932 -0.002317091 0.07112617
000060 e0 4d 00 bb 8d 0f ac bc 54 d9 8d bc 7f 67 d5 bc
       -0.0019577667 -0.021003509 -0.017315544 -0.026050327
000070 74 bd 86 3c d5 4d 42 3c 65 bc 82 3c 8b 9a 8c 3c
       0.01644776 0.011859377 0.015958974 0.017163536
000080 ed d8 ce bb 69 87 1b bd 4e 69 ec bc d8 21 aa 3d
       -0.0063124807 -0.037970934 -0.028858807 0.083072364
000090 4b 56 c8 3d 8f 68 02 bd 72 fe 92 bb 78 04 b5 bd
       0.09782084 -0.031837996 -0.0044858987 -0.08838743
0000a0 b9 45 c5 3d ac af 0c 3d 4b 19 9b 3c d7 da 07 3d
       0.09632439 0.03434722 0.018932959 0.033167686
0000b0 50 a3 99 3d 55 20 e6 3c 46 74 02 3d 48 e5 a9 3d
       0.075018525 0.028091589 0.03184917 0.08295685
0000c0 e1 22 41 3d 72 e9 7f 3d 7d 18 07 bd e8 ad ae bc
       0.047152404 0.06247849 -0.03298234 -0.02132316
0000d0 5c 67 bc 3c d3 51 10 bd 96 db d8 3b 00 d0 37 bd
       0.022998504 -0.035234284 0.0066179736 -0.0448761
0000e0 d2 74 eb bc 01 5b c1 bc 46 79 27 3d e7 80 bb bc
       -0.028742228 -0.023602964 0.04088714 -0.022888614
0000f0 32 b7 22 bd 31 9a d0 bc 3e 5d b2 3c e2 a9 33 bc
       -0.03972549 -0.02546415 0.021772977 -0.010965796
000100 15 44 30 3d f2 ec fa bc ae 96 bb bc cd 01 0e bd
       0.043033678 -0.030630562 -0.022898998 -0.034669686
000110 b8 cd ff 3c 24 34 5b 3d d1 f0 4c 3c 30 2b 07 bd
       0.031226024 0.053516522 0.012508587 -0.03300017
000120 3f cf 0c bd 80 03 a6 bc 86 6f 46 3c e3 c2 94 bb
       -0.034377333 -0.02026534 0.01211155 -0.004539834
000130 5d 29 d5 bc 90 12 17 3d 74 a9 16 bd fe cd 26 bc
       -0.0260207 0.036882937 -0.036782697 -0.010180948
000140 87 82 6b bc 89 3a 78 3c c0 46 5b bc 7c 59 4a 3a
       -0.014374382 0.015150675 -0.013383567 0.00077190227
000150 c1 70 38 bd 64 7e 47 bd 33 7e 34 bb 80 47 a0 bb
       -0.045029406 -0.04870452 -0.002754104 -0.004891336
000160 28 d6 25 bd 5c 08 1b bd 41 d2 98 bc ff a6 61 3d
       -0.04048744 -0.03784977 -0.018654944 0.0550909
000170 d6 ca a4 bc 59 31 a0 3c a7 59 f5 3c 1f cf 85 ba
       -0.020116251 0.01955478 0.029949976 -0.0010208822
000180 b2 10 f9 3c 61 11 9f ba f0 82 f9 3a 0c 54 24 bc
       0.030403469 -0.0012135917 0.0019036215 -0.010029804
000190 7b db 1a bd b3 72 c4 3c c2 c7 1f 3d 43 be 06 3d
       -0.03780697 0.023980474 0.039008863 0.03289629
0001a0 61 e8 2f bd 21 9d e2 bb 1e 40 0a bd 26 87 b4 3b
       -0.042946223 -0.006915704 -0.033752553 0.005509275
0001b0 f0 4d c3 3b 1b d7 ba bc ea af 52 bd 81 ed 86 3d
       0.0059602186 -0.022807648 -0.051437296 0.06588269
0001c0 d5 ea 4c 3d 82 02 dd b9 18 bd b9 bc 88 a5 63 bd
       0.05002864 -0.00042154273 -0.022673175 -0.055577785
0001d0 d1 3f 3d 3d c3 d8 0a 3b ab 00 c7 bc a6 58 bc bb
       0.04620344 0.002118633 -0.02429231 -0.0057478724
0001e0 af 50 1b 3d 3b aa ee bc 1e f3 07 3c dc 2e 91 3c
       0.037918743 -0.029133907 0.00829771 0.01772254
0001f0 77 a2 12 3d 42 72 1c 3d 4a 4f 09 3d bf 0d 8b 3d
       0.03579947 0.038194902 0.03352288 0.06789731
000200 23 a0 2d 3d a7 4f 06 3c f6 5f 7a 3d 5e 72 9c 3a
       0.042389046 0.008197702 0.06112667 0.001193594
000210 b3 d7 94 3d dd 45 68 bd 7e ef 9a 3d b3 15 a7 3c
       0.07267704 -0.05670725 0.07565211 0.02039609
000220 dc 5c f2 3c a5 85 66 3d 77 14 5a 3b b1 c3 0e 3c
       0.029585294 0.056279797 0.0033276358 0.008713649
000230 8b 8f fa bc 62 7c ae 3a 47 49 43 bd 82 6f 68 bc
       -0.030586025 0.0013312215 -0.047677305 -0.014186742
000240 ff 31 9f bd d9 a5 a5 bc ef ea 07 bd 01 d5 32 3d
       -0.07773208 -0.020220684 -0.033183035 0.043660168
000250 6d 30 c7 3c bf 08 0b bd 26 2f 62 bc 60 9b 19 3d
       0.024315083 -0.033943888 -0.013805186 0.037501693
000260 44 f2 2d 3d 22 ed ed 3c 7c b1 b5 3c 79 72 3c 3c
       0.04246737 0.029043738 0.022179358 0.011501902
000270 91 07 a7 bb 38 10 06 3d 50 4e 42 bc 05 dd 18 3d
       -0.0050973375 0.03273031 -0.0118594915 0.037320156
000280 fa 7a a9 3c d7 8c 14 bd 14 a7 b6 bc 20 f9 c4 bd
       0.020688523 -0.036267128 -0.022296466 -0.09617829
000290 af 9f 16 bd 9f 0e 3b 3c d4 b8 ea bc 5b 4b 8b 3d
       -0.03677338 0.01141706 -0.028652586 0.06801482
0002a0 46 8d b5 3b c2 54 ac bd 1c 96 2a 3d 08 50 62 bd
       0.0055405227 -0.08414604 0.04164706 -0.055252105
0002b0 f8 94 05 bd 9e 17 89 3d b3 9c 81 3d 74 6f 2c 3c
       -0.03261277 0.06693958 0.06328716 0.010524619
0002c0 6f b3 85 bc 03 63 89 3c 98 8d cd 3c 93 5d 1a 3d
       -0.016320912 0.016770845 0.025091931 0.037686896
0002d0 a3 00 5c bd c7 3f 73 3c c3 5d f1 3c 8a 2a 89 3c
       -0.053711545 0.014846749 0.029463654 0.016743917
0002e0 91 df 03 3d ab 6d 66 bd 12 65 74 bc e8 21 8e bd
       0.03219563 -0.05625693 -0.014916675 -0.06940061
0002f0 a3 1a 2f 3c b8 b4 78 bd a2 e3 d1 3c 24 76 58 3c
       0.010687503 -0.06071922 0.02562124 0.013211761
000300 59 36 a8 bc 38 9f 32 bd 98 58 7f 3c 56 bf d8 3c
       -0.020533727 -0.043608874 0.015585087 0.026458424
000310 df cf 99 3c 7d 17 c8 3d fd b2 89 3c e6 6a 22 3d
       0.018775878 0.09770105 0.016808981 0.039652728
000320 ab f9 c4 bc 44 c5 8b ba 4c ac 19 3d da e7 d4 bc
       -0.024044832 -0.0010663648 0.03751783 -0.025989462
000330 0c 55 04 3d a1 79 62 3d 91 3b d4 bc 69 a9 ff 3c
       0.03230767 0.055291776 -0.02590731 0.03120871
000340 85 0b 32 bd c5 7e a1 3a 67 d8 32 3d 1a 6c 91 3d
       -0.043468017 0.0012321105 0.04366341 0.07100697
000350 78 6e b1 3b 40 f4 69 3d 70 4f ec bb 05 e7 bc 3c
       0.00541478 0.0571177 -0.007211618 0.023059377
000360 2b a5 53 3d ab 4e 51 bd 4d 8d cb bc 67 c0 3a 3d
       0.05167119 -0.051100414 -0.02484765 0.045593645
000370 fd aa 08 bd 66 23 d9 3c 26 f9 86 3d 58 4d 4f 39
       -0.033366192 0.026506137 0.0659049 0.00019769871
000380 0e 63 7b bd 70 4d 5c bd c0 3e 42 bc b5 a4 1b 3c
       -0.061373763 -0.053784788 -0.011855781 0.009499718
000390 e5 c3 05 bd 8d de 3b bc 9b c8 76 3c 8c e6 a8 3c
       -0.032657523 -0.011466634 0.0150624765 0.020617746
0003a0 4c 0b 99 bb 99 9e 9d 3c e1 3e 6f 3d 60 bf 75 3d
       -0.004670536 0.019240664 0.058409575 0.059996963
0003b0 f4 31 12 3d 0a 59 65 3d ad f0 c5 3c 46 d1 09 3d
       0.03569217 0.055993117 0.024162615 0.033646844
0003c0 5f 51 b4 bc 37 54 c7 3c bd 12 c0 bb 85 8c 44 bd
       -0.022011457 0.024332149 -0.005861609 -0.047985572
0003d0 08 e7 61 3c 99 66 2f 3c 86 b8 27 3d 12 71 ec 3c
       0.013787992 0.0107056135 0.04094746 0.02886251
0003e0 88 d9 e3 bc 0d aa e7 3b 88 73 43 3d ab 51 ca bc
       -0.027813688 0.007069832 0.0477176 -0.024697145
0003f0 fe 34 21 bd eb 8c 22 bd b7 4f c4 3c 6d d3 a6 3c
       -0.039357178 -0.03968517 0.023963792 0.020364488

features.7.bias f4 [120]
000000 3a 35 51 bd 48 7e 10 bb 43 bd 48 3c 2f b8 1d 3d
       -0.05107615 -0.0022047926 0.012252155 0.03850573
000010 94 f9 1c 3d 1d 74 fe bc 36 54 07 3b b8 4d 04 bc
       0.038323954 -0.031061227 0.002064956 -0.00807517
000020 04 46 0e bd 15 4b 4c 3d 8e 6c b5 3c 55 50 27 bd
       -0.03473474 0.04987629 0.02214649 -0.040848095
000030 ae 5a c2 ba e3 6e 87 3b 3e 9f 2f 3d a3 ca 0c bd
       -0.001482805 0.004133092 0.042876475 -0.034372937
000040 dd 60 05 3b 1f c9 fc 3c a2 c5 8f 3c 10 b2 18 bd
       0.0020351924 0.03085762 0.017550293 -0.03727919
000050 dc 3b c6 bc 9b 97 68 bc ae 1e 8c bc d4 11 27 3d
       -0.024198465 -0.014196302 -0.017104473 0.040788487
000060 3d 9d 2e 3d 14 7f e9 bb e9 27 d2 bb 38 56 4e 3d
       0.042630423 -0.0071257446 -0.006413449 0.050375193
000070 89 c5 6a 3c 25 1b ae bc d4 02 55 bd 0c 70 e0 3a
       0.014329323 -0.021253178 -0.05200465 0.0017123236
000080 ba 56 b0 3c 1f bd 51 3d 6e e8 f6 bc ab dd f6 3a
       0.02152573 0.05120575 -0.030140128 0.0018834373
000090 15 12 08 3d 8d 86 94 bc 66 d5 9b 3c a6 d2 54 3d
       0.03322037 -0.018130565 0.019022655 0.051958703
0000a0 d2 2a 92 3d 99 8a d6 3c b0 26 f8 3c 67 10 ac bb
       0.071370736 0.026189135 0.030291885 -0.0052509787
0000b0 8c 9d 7e bc a9 dc 66 bb 79 01 9d 3d d1 5b c7 bb
       -0.015540492 -0.0035226739 0.076662965 -0.0060839434
0000c0 f3 bd 28 3c fe 0d 5b 3d 0f 9f 46 bc 6b bf b4 bc
       0.010299194 0.05348014 -0.012122883 -0.022063931
0000d0 95 85 ea 3c 2a b8 35 3c ec 2b 95 bc a0 16 1b 3c
       0.02862815 0.011091271 -0.01820942 0.009465843
0000e0 05 41 7b bc 22 bb 53 bc 34 68 fe 3c 36 98 29 3d
       -0.015335326 -0.012923034 0.031055547 0.041404925
0000f0 57 e4 e4 bc c5 5f 89 3c 0b 5c b0 ba 21 9f 12 bd
       -0.027940912 0.0167693 -0.0013455165 -0.03579629
000100 e6 55 22 3c 7b 09 3e bd 82 50 3c 3c 45 8b 16 3d
       0.009908175 -0.04639576 0.011493804 0.03675391
000110 3a fd 83 3a 78 63 17 3d 85 1d b2 3c 74 35 e7 bc
       0.0010069974 0.036960095 0.021742592 -0.02822373
000120 6f a2 96 3c 1f 8e d2 bc d0 6f 58 3c 79 d8 2e 3a
       0.018388001 -0.025702534 0.013210252 0.000666983
000130 f2 a2 e1 3b 46 db 97 bc 97 e2 b8 3c 4b 06 22 bd
       0.0068858797 -0.018537175 0.022568984 -0.039556783
000140 d6 d7 fd 3c 4a a0 bb 3c 9f 51 31 bd 67 37 b0 3b
       0.030986708 0.02290358 -0.04329073 0.005377698
000150 07 68 06 3d 3c ff 27 3b 72 5d 32 3c 29 6e 38 3d
       0.032814052 0.002563431 0.010886537 0.045026932
000160 5e 44 42 3d 12 7e 3e bd 99 29 aa 3c a7 e2 22 3d
       0.04742848 -0.04650695 0.020771788 0.039766934
000170 d5 1e 6d 3d 32 61 a0 bc 0d 07 ec bc 51 06 17 bd
       0.05789073 -0.019577596 -0.028811956 -0.03687126
000180 e6 54 ad bc 63 ad a7 bc 33 36 de bc c0 ce 41 bd
       -0.021158647 -0.02046842 -0.027125454 -0.047316313
000190 50 e4 b1 bc 0f 91 cc 3c 37 89 83 bc 8f eb 28 bd
       -0.021715313 0.024971513 -0.01605664 -0.04124027
0001a0 12 b4 15 3d bd f9 1b bc c9 dd 8d bc bc 91 0b 3d
       0.03654868 -0.009519991 -0.01731767 0.03407453
0001b0 21 e5 09 3d 8d 5d a5 3c 63 a2 f8 bc c4 e4 c3 3c
       0.03366578 0.02018621 -0.03035087 0.023912795
0001c0 9f 00 2c bd 5c 82 cf bc 9b 1d ab 3c d4 ab 40 3d
       -0.04199278 -0.025330715 0.02088814 0.047038868
0001d0 98 59 b7 bc a0 72 25 bd dc ac d1 bc e9 c5 5e bc
       -0.022381589 -0.040392518 -0.025595121 -0.01359699

features.9.weight f4 [84, 120]
000000 36 78 e1 3d 49 e9 52 bd 68 99 0a 3d 98 c5 96 bd
       0.110092565 -0.05149201 0.033837706 -0.07361907
000010 c7 41 e2 3c db e8 c0 3d b4 f0 db bc 89 bf 8b 3d
       0.027619256 0.09419414 -0.026848175 0.06823642
000020 97 be 37 3d 02 fb c3 3c da 15 3d bd f9 74 29 bd
       0.044859495 0.0239234 -0.046163417 -0.04137132
000030 23 6e 93 bd 7d fd 57 3d 61 aa 5d bd e6 04 b3 3d
       -0.07198741 0.05273198 -0.054117564 0.08741169
000040 87 d3 a2 3d 8a bd f0 3d 64 a2 65 3d 60 bc a8 3c
       0.07950502 0.11754902 0.05606307 0.020597637
000050 8a 43 aa 3c 81 0f 2c bd 16 aa 25 bb b6 32 b5 3d
       0.020784158 -0.042006973 -0.002527838 0.08847563
000060 a9 85 ee 3b bb 02 a4 bc 0b e6 c2 bc 5e 49 a1 bc
       0.007279117 -0.020020833 -0.023791334 -0.019688305
000070 2f e4 f7 bc 98 be 4a bc 22 8d 68 bb 0c 9c a1 3d
       -0.030260174 -0.012374543 -0.0035484512 0.07891092
000080 77 02 1f 3d e0 1e ba 3d 4a da 8b bd 3a 9e 6d bc
       0.03882071 0.0908792 -0.06828745 -0.014503056
000090 28 76 88 bd bf 25 a6 3d f0 00 64 bc 0e 0b 81 3c
       -0.066631615 0.08112668 -0.013916239 0.015752342
0000a0 32 fc 95 bd f5 00 4d bd 2a 70 97 bc d6 1d ae bd
       -0.07323493 -0.05004974 -0.018486101 -0.085017845
0000b0 08 9e ab bd ea b9 c3 3d 27 57 00 3e 88 9f 89 bc
       -0.083797514 0.09556945 0.12533246 -0.016799703
0000c0 a6 e2 3b 3d bf f8 da bd 5f fb 96 bb fa fa 90 ba
       0.045870446 -0.10691976 -0.0046076025 -0.0011061125
0000d0 d6 57 16 3c f8 9a b8 bd 35 f9 70 3d b2 58 9c 3d
       0.009176215 -0.09013933 0.058831412 0.07634105
0000e0 af 63 d8 3c 13 7c 7a bd de 1e 57 3d 62 12 07 3d
       0.02641472 -0.061153483 0.05251967 0.032976516
0000f0 9a c4 b6 3d b2 b1 b2 3d 08 02 85 3d 7f e5 3b bd
       0.089242175 0.08725299 0.06494528 -0.04587316
000100 89 ee b0 bd 51 b5 b0 bd 58 fb e7 bc 26 89 e3 bc
       -0.08639247 -0.08628333 -0.028318092 -0.027775358
000110 6a b4 99 bd 01 70 a4 3c 6f af 31 3d ad 31 74 3d
       -0.075051144 0.020072939 0.043380197 0.059617687
000120 5d 75 0c bc 4f 0f b1 bd 56 05 a4 bd 74 91 c5 bd
       -0.008572903 -0.08645498 -0.0800883 -0.096468836
000130 4b 87 95 3d ab 1b d9 bd b8 38 6d 3b 41 d1 6c 3d
       0.07301196 -0.1060098 0.0036197137 0.057816748
000140 d9 34 f1 bc 90 39 82 3c 0a 39 1f 3d 13 22 64 bd
       -0.029444145 0.015896589 0.038872756 -0.05569656
000150 6d d8 8e bd 85 5a ff 3b 20 3d b6 3d 19 1d 39 3d
       -0.06974874 0.007792773 0.088983774 0.045193765
000160 96 60 a4 bd 64 ec b1 3b 89 d2 80 3b c8 e7 bc bc
       -0.08026235 0.0054297913 0.0039313477 -0.02305974
000170 cd 50 33 bd 98 af 14 3e a6 84 3a bd ca cd b3 3d
       -0.04377823 0.14520109 -0.04553666 0.087794855
000180 ba f0 23 3d ec 4c 4a 3d c7 2f d6 3d a5 33 ae bc
       0.040024497 0.049389765 0.104583316 -0.02126486
000190 bc ce 7b bd 9e d0 cc bc d5 46 73 3d 36 58 f5 3c
       -0.061476454 -0.02500182 0.059393723 0.029949289
0001a0 33 da 43 bb 28 62 19 3d 91 6c 8f 3d 64 0c 4d bd
       -0.0029884696 0.037447125 0.07003129 -0.050060645
0001b0 08 f6 a7 ba 0f 7e a0 bd 71 2a 61 bd 5f eb 76 3d
       -0.0012814412 -0.07836544 -0.054972116 0.06028306
0001c0 40 6e 27 bb 6e 0a 66 3d bc 69 7c 3d 63 cb f0 ba
       -0.0025547892 0.05616229 0.061624274 -0.0018371161
0001d0 92 1e d0 bd 34 69 54 3c f9 e7 2e bc 6b a3 96 3c
       -0.10162081 0.0129645355 -0.010675424 0.01838847
0001e0 0b e0 3c 3b 06 3f b5 3d 76 2c 8d 3d ea 16 69 3d
       0.0028820063 0.088499114 0.06893246 0.05690662
0001f0 6f 15 9c 3d a0 dd ea bc d2 bf 94 3b 34 b3 a2 bd
       0.07621276 -0.028670132 0.0045394683 -0.079443365
000200 30 3e 52 3d 3e 9c 77 bd d5 b2 a5 3d 0f a5 ab bd
       0.051328838 -0.06045174 0.0809075 -0.08381092
000210 81 f2 c9 3d 32 04 ed 3d 1e cb 87 3d 4f fc 63 3d
       0.09860707 0.11573066 0.066305384 0.055660542
000220 39 48 1d bd 9e 4b 81 bc bb f1 27 bd 70 55 12 3d
       -0.038398955 -0.015783127 -0.041002017 0.03572601
000230 f1 ff fa bc a2 7b a6 3d e2 f3 5f 3d 46 67 f9 bd
       -0.03063962 0.0812905 0.054675944 -0.12177901
000240 60 eb 82 3c 6a c7 94 bc 1d 62 bc bd 02 48 42 bd
       0.015981376 -0.018161494 -0.09198401 -0.047431953
000250 53 ab 2e bc 28 0a 3d bd db de 11 bc 40 68 78 bd
       -0.010660964 -0.046152264 -0.008903231 -0.060646296
000260 2c 21 06 bc c4 13 a9 3d b5 cd 0c bd 65 ac bf bb
       -0.00818662 0.08255723 -0.034375865 -0.0058494085
000270 65 24 52 3d 42 99 35 3d 00 2b 45 3d d8 f2 2b bb
       0.05130424 0.04433561 0.04813671 -0.0026237275
000280 e4 da f5 3d e7 2a bc bc 7e 83 17 be ed 6e 22 bd
       0.12004641 -0.022969676 -0.14796254 -0.03965657
000290 7f ea eb bc 6f b2 b0 bd d0 dc 13 3d 38 f4 f6 bc
       -0.02879834 -0.086277835 0.036099255 -0.03014575
0002a0 cf b6 10 bd 36 36 dd 3d 30 69 0e bc 5b a0 c0 bd
       -0.03533059 0.108013555 -0.008692071 -0.094055854
0002b0 35 37 4e bb d3 9e 9e 3d 0c 72 82 bd 1e 4f d1 3c
       -0.0031466011 0.07745137 -0.06369409 0.025550421
0002c0 03 e0 98 3c 2f f1 70 bd 56 6a 92 bd c5 06 3f bc
       0.018661505 -0.05882376 -0.07149188 -0.011659329
0002d0 46 9a c3 3c ac 3e b0 bc 84 eb f4 3d de 34 86 3d
       0.023877274 -0.02151426 0.119589835 0.06553052
0002e0 92 91 ab bc da 77 bc 3d 06 d9 f7 3d 07 92 20 3d
       -0.020943437 0.09202547 0.12101941 0.039201763
0002f0 7f 1c 58 bd a0 84 52 3d 89 a9 38 3e b5 15 26 bd
       -0.05276155 0.051396012 0.18033423 -0.040548045
000300 c4 c3 b3 3d 38 f0 30 3d 37 f5 d9 ba 90 ec 16 3d
       0.08777574 0.04319784 -0.0016628866 0.036846697
000310 fe f0 fb bc f6 45 95 bd da 3e be bc 61 15 47 bd
       -0.030754562 -0.072887346 -0.02322333 -0.048604373
000320 44 b5 da 3b 26 4f 25 bc 1f a5 8d bd f8 12 38 3b
       0.0066744406 -0.010089671 -0.0691626 0.0028087478
000330 a2 a8 59 bd cd 64 a7 bd 10 32 64 bd 56 64 8f bd
       -0.053139336 -0.08173523 -0.055711806 -0.070015594
000340 21 82 64 bd c7 eb ad bc 71 96 2f 3d 0a 6b 0c 3e
       -0.055788163 -0.021230591 0.04286808 0.13712707
000350 34 b9 bd bd 29 bf cf 3c ea 3f 80 3d 37 00 40 3d
       -0.0926384 0.025359707 0.06262191 0.046875205
000360 b0 06 95 bd 39 03 20 3d a5 db bd bc 83 b0 9a 3d
       -0.07276666 0.039065573 -0.023176024 0.07553198
000370 9d d6 7b bd 11 da d6 3b c2 b2 71 bd 2c e7 6b bd
       -0.061483968 0.0065567573 -0.059008367 -0.05759351
000380 2c 36 a5 bd 75 da a1 3c 08 a0 d0 bc 11 c9 51 bd
       -0.08066973 0.019757489 -0.025466934 -0.051217142
000390 d5 a5 be 3d e1 64 0e bd a7 50 71 bd ee 7e d9 3d
       0.09308974 -0.034764174 -0.058914807 0.10619913
0003a0 be eb 8b bd f0 6e 17 bc 27 29 59 bd 2f 4c ce 3d
       -0.06832074 -0.009242758 -0.05301776 0.100731246
0003b0 c9 43 e1 bd 2b f0 92 bc 86 27 64 bc d8 b6 11 bd
       -0.10999257 -0.017936787 -0.013925439 -0.035574764
0003c0 30 6c 9f 3d 99 f0 08 bd 78 5b 0c 3d f0 a0 96 bd
       0.07784307 -0.033432577 0.03426692 -0.07354915
0003d0 25 d2 20 bd 12 c1 af 3d 42 70 bd bb 8f bd a9 3d
       -0.03926291 0.08581747 -0.0057812044 0.082881086
0003e0 f7 6f 99 bc 6c 26 0d bd 70 2b 5c bd 9f 31 9a bd
       -0.018730147 -0.03446047 -0.053752363 -0.07528996
0003f0 35 1a ec 3c 49 6d 32 3d 7d ca 17 3d cf ed 82 3c
       0.02882109 0.043561254 0.037058342 0.015982537

features.9.bias f4 [84]
000000 4a 9a 8a bd 9c 1e 16 3d d5 6f 46 3d c2 e4 a4 3d
       -0.067677096 0.036650285 0.048446495 0.080514446
000010 f7 e4 9b 3b f0 9b 03 bd 61 b2 3b bc eb 49 80 3d
       0.0047575193 -0.032131135 -0.011456103 0.06264099
000020 35 ee a4 bd fc a0 01 bd 35 d0 a2 3d 0c e7 a5 3d
       -0.08053247 -0.031647667 0.079498686 0.08100709
000030 6c 74 a0 bc b7 e1 f0 bc 98 72 ba 3d ed 9a 17 bd
       -0.019586764 -0.029404504 0.09103888 -0.037012983
000040 3f 99 01 bd ea f4 d1 3d cb 95 67 bc 18 7f 58 bc
       -0.031640287 0.10251792 -0.0141348345 -0.013213895
000050 91 e3 6c bd 82 a3 e7 3d d6 3e 02 ba 36 29 d0 3d
       -0.05783421 0.113104835 -0.000496847 0.1016411
000060 04 1d 4e bd 23 20 c2 3d 47 5d c5 3d bf 25 73 bd
       -0.05032064 0.09478786 0.09636932 -0.05936217
000070 ae b3 c5 3d cc cd ab bd 52 9e 85 bd c8 b2 57 bd
       0.09653412 -0.08388862 -0.06524338 -0.052660733
000080 1f b2 0e bd 30 ca b4 bd 81 b0 1e bd a5 51 87 bd
       -0.03483784 -0.08827627 -0.038742546 -0.06607369
000090 be 82 18 bd 3c 4e 53 3d f9 cb 33 3d d0 06 a4 3b
       -0.03723406 0.051588282 0.043895695 0.005005695
0000a0 e9 a1 02 3e 2c dd 97 3d 28 00 2b 3d 14 71 1f 3d
       0.12757076 0.07415232 0.041748196 0.0389262
0000b0 66 e1 fa 3c b9 47 f4 bc 34 dd 7a bd 62 3a 6b 3c
       0.030625056 -0.029819356 -0.061246112 0.014357181
0000c0 85 67 05 3e d4 d6 a5 3d d7 d9 05 3d c0 31 ec 3d
       0.13027771 0.08097616 0.03267845 0.115329266
0000d0 83 7a 29 bd 5e bb 63 bd d7 9a e4 3d 8e 79 c7 bc
       -0.041376602 -0.05559861 0.11162346 -0.024349954
0000e0 59 d1 04 bd 6e 62 1c 3c 4e 52 54 bd 43 f7 c0 3d
       -0.032426212 0.009544952 -0.051836304 0.094221614
0000f0 38 e1 95 bd 81 b9 9d bd 9e 9c 35 3c d9 77 3e bd
       -0.07318348 -0.07701398 0.011084704 -0.046501014
000100 3c e9 5d bb f6 74 49 3d 17 92 c4 3d 24 a2 46 bd
       -0.0033860942 0.04918381 0.09598177 -0.048494473
000110 14 6e ad bd 73 6d b7 3d 9f 59 a1 bd 87 1a 4c bd
       -0.08468261 0.08956423 -0.07878422 -0.049829986
000120 c5 ab b6 3d 81 c8 07 3b 0d 07 8e 3d f9 13 3a 3d
       0.08919481 0.0020718875 0.069349386 0.045429204
000130 b5 8a 48 3d d7 f4 9d bd f0 32 80 bd b2 52 52 3d
       0.048960406 -0.07712715 -0.062597156 0.051348396
000140 9f 5e 90 3d 2b 52 30 bd 20 51 5d 3d 9b 3c f1 3d
       0.070492975 -0.04304711 0.054032445 0.11779138

features.11.weight f4 [10, 84]
000000 ec bb 83 bc 01 ed 0c 3d 2c 2f 9a 3b 7f 61 9d bc
       -0.01608082 0.034405712 0.0047053304 -0.019211529
000010 03 93 0e 3e 38 6b 81 bd e3 22 78 3e f8 34 b0 3e
       0.13923268 -0.063192785 0.24232058 0.34415412
000020 bc ac 45 bc 5e ca b6 3d b5 4f 56 be 95 eb 58 bd
       -0.012065109 0.08925317 -0.20928843 -0.052959044
000030 d4 1d c1 3d 32 44 8a 3b 82 1b 7f 3e 14 f8 80 3b
       0.094295174 0.0042195553 0.24912837 0.003935823
000040 91 da c4 bd 61 c8 54 3e f7 99 56 be 98 8d b0 bd
       -0.09612001 0.20779563 -0.2095717 -0.08620757
000050 50 6c 9e 3c 28 e5 07 3e dc 0b 0a be 2d 0e 45 3d
       0.019338757 0.1327101 -0.13481086 0.048109222
000060 aa 37 dc bd 0e b2 8e bc 56 f6 0f be bd 61 2f bd
       -0.107528046 -0.017418887 -0.14058813 -0.04281782
000070 b6 3a 96 bd 2d ce 4a bd d9 bd 02 3d ec 01 d9 3d
       -0.07335417 -0.04951303 0.031919334 0.1059607
000080 5c f8 1d 3d 57 7b ab 3d ed e8 a6 bd 99 90 86 3d
       0.038566932 0.083731346 -0.08149896 0.065705486
000090 4a 3b 50 be bf a3 57 3e 7e 4e e9 3d 19 c3 81 bd
       -0.20335117 0.21058558 0.11391924 -0.0633604
0000a0 2c 56 6b be 33 95 df 3d 98 bf ce 3c e8 7e 36 be
       -0.2298209 0.10917129 0.025237843 -0.17821848
0000b0 d4 8b 92 3c 9a c0 47 3e 0a 61 58 3e 86 a2 15 be
       0.01788894 0.19507065 0.21130767 -0.14612779
0000c0 3a a6 20 3d 5f ef 1a 3d 09 a2 4a be 2a 42 55 be
       0.039221026 0.03782594 -0.19788374 -0.20826021
0000d0 d4 76 8a bd f6 6e 1b 3e e1 5e 9e bd 5e 0f 1b bd
       -0.06760946 0.15179047 -0.077329405 -0.037856452
0000e0 40 bf 13 be dd 0e b4 bd d0 fd f8 3c 31 84 01 bd
       -0.14428425 -0.087918974 0.030394465 -0.03162021
0000f0 27 3a 88 bd 46 e9 24 3c b4 c4 3f bd ef 86 3d bd
       -0.06651717 0.010065382 -0.04681845 -0.04627126
000100 34 de 3d 3d 44 c9 a6 3e dc c1 83 be 8c 6d 61 bc
       0.046354488 0.32575428 -0.2573384 -0.013759028
000110 9b 61 fe bc f0 de 4a be bc 70 a9 bd e9 df 2e 3d
       -0.031052401 -0.19811606 -0.082734555 0.042694006
000120 7a 89 0b 3e 89 f5 38 3c 45 b0 5a be e8 77 3d 3d
       0.13626662 0.011289009 -0.21356304 0.04625693
000130 61 e8 40 be 07 2c fe bc b8 c9 11 3d 34 ad 5d be
       -0.18838646 -0.031026853 0.035592765 -0.21648103
000140 cd a1 ab bd 46 bf 7a 3d 21 65 e6 bc 2c 20 86 be
       -0.083804704 0.06121757 -0.028124394 -0.2619642
000150 b1 52 0a 3e ae 6d 60 3e 5b 4f 64 bd e9 e5 4c 3b
       0.13508107 0.2191684 -0.05573974 0.0031264967
000160 6b 59 da bc a5 f4 10 be 52 3e c1 3d dd c7 b1 be
       -0.026653966 -0.14155824 0.09435715 -0.34722796
000170 21 d6 21 3d 6e 97 90 be 32 29 58 bc 23 3c e6 bd
       0.03951085 -0.28240532 -0.0131934155 -0.11241939
000180 9a 21 96 bd 94 fc 71 3e 8a 06 1a 3e 59 27 62 bd
       -0.07330628 0.23631507 0.15041557 -0.055213306
000190 fe e5 30 3d dd 8f 8b 3c 47 25 12 3d 2e 62 c6 bc
       0.043188088 0.017036373 0.03568008 -0.024216738
0001a0 86 a5 d7 3d dd eb 48 bd 9f 52 29 bc 84 f7 8f bd
       0.10529618 -0.04905306 -0.01033464 -0.07029632
0001b0 b3 dc f1 3d 21 5c 95 3e ab b1 ac 3d d2 69 c7 3d
       0.11809673 0.2917185 0.08432325 0.097369805
0001c0 97 da ee 3d b7 51 f1 3c 2a 8d ea bd 30 73 04 bd
       0.116627865 0.02945791 -0.11452706 -0.032336414
0001d0 34 4b cf bc 3d 14 cb 3d c9 48 a2 3d 8c 3e 74 3d
       -0.025304414 0.099159695 0.07924039 0.05962996
0001e0 d4 c7 8c bd 0d 91 cc bd 6a bb b2 3d ba 66 cc bb
       -0.06874052 -0.09988604 0.08727153 -0.006237832
0001f0 f9 6e b3 3c 05 6b b9 bd f3 0b 9a 3e 28 65 31 3e
       0.021903502 -0.090536155 0.30087242 0.17323744
000200 19 f1 14 3e d8 1b 58 bd fc a5 21 3e 48 8e 53 be
       0.14545096 -0.05276093 0.15785974 -0.20659745
000210 14 cc 46 bd d0 5a 33 3c 39 8b f4 3d a3 a8 fb 3d
       -0.048534468 0.010946944 0.11940617 0.12288024
000220 6c d5 e6 bb cc 3d 26 3e 8b 6b 8e 3d 78 58 86 bd
       -0.007044485 0.16234511 0.06954106 -0.06559843
000230 35 b0 2a 3e dd 7f 58 bc e5 ce 58 3d 4b df 8e 3e
       0.1666878 -0.013214079 0.052931685 0.27904734
000240 18 18 b1 bd 20 8e 9d bd 25 7d d0 bb af ca d6 3c
       -0.08647174 -0.07693124 -0.0063625746 0.026219694
000250 d3 6e 8a 3e d2 f9 d7 be 1e 3d 3d 3e 29 62 3f bb
       0.27037677 -0.42182785 0.18480346 -0.0029202795
000260 27 e7 6d bd ee 15 6b be 1d 1b 52 3d a3 c1 9a bd
       -0.058081772 -0.22957584 0.05129539 -0.075564645
000270 64 18 a1 be c0 86 be bb c6 e5 f6 bd c7 c1 8b be
       -0.3146392 -0.0058144033 -0.120555446 -0.27296278
000280 d6 15 0f 3e 1d 94 ef bb 2f 98 02 3d 88 46 1b bc
       0.13973173 -0.0073113577 0.031883415 -0.009477265
000290 21 f6 72 bd bd d4 6a bd 0b 88 86 3e 98 05 16 be
       -0.059316758 -0.05733179 0.26275668 -0.14650571
0002a0 53 f2 b9 3c 12 ca 56 be a9 4f 37 3c da 59 18 be
       0.022698557 -0.20975521 0.011188426 -0.14878026
0002b0 eb d0 59 be 65 be 56 3d 96 fb 14 bd dc b4 0c bd
       -0.21271102 0.052427668 -0.036372744 -0.03435217
0002c0 7e 0f 46 3e 5c 63 99 bd 6a 25 76 bd 2e 35 92 3d
       0.19341847 -0.074896544 -0.060094275 0.071390495
0002d0 ee 3e 79 3d 79 c0 80 be fd 80 2f 3d e7 bc 04 3e
       0.06085103 -0.25146845 0.042847622 0.12962686
0002e0 d8 49 32 be 17 aa 87 3e 92 90 5f be 44 6a 20 3b
       -0.17410982 0.26496956 -0.21832493 0.0024477402
0002f0 de d2 32 3b 8d 16 15 3e cb 9d 50 3e 2c 10 df 3c
       0.0027286331 0.14559384 0.20372693 0.027229391
000300 f3 2b 31 3e 0d 44 60 3d 66 ed e6 3d 65 bb 19 be
       0.17301922 0.0547524 0.11275749 -0.15012892
000310 8e d0 94 bd da 90 18 be 33 0e b1 3d bb 17 3d 3d
       -0.07266341 -0.14899006 0.086452864 0.04616521
000320 a6 70 f2 bb 11 9a 11 bc 50 77 ce bd d5 2a 3d 3d
       -0.0073986826 -0.00888683 -0.10081351 0.046183426
000330 01 6b fc bd 1a 30 40 be 71 6c 02 3e e5 1a d7 bd
       -0.12325097 -0.1876835 0.1273668 -0.105031766
000340 6c 2f 63 be ea cd 01 3e b8 3a a3 3c b0 a6 b8 3d
       -0.22186059 0.12676206 0.01992546 0.09016168
000350 a8 5f 02 3e d7 d5 34 be 7b 78 55 3e f6 6d ab 3e
       0.12731802 -0.17659698 0.20846741 0.3348233
000360 bc 07 15 be 63 d5 f2 bd b8 b7 99 3d a0 89 6e be
       -0.14553732 -0.118571065 0.07505745 -0.23294687
000370 75 7d ae bc c9 3d 2a 3c b1 a2 4e 3e 9c b3 dd bd
       -0.021300057 0.010390707 0.2017925 -0.108252734
000380 08 73 64 3e ad aa 63 3b a1 f1 31 bd fc 5a df bd
       0.22309506 0.0034739182 -0.043443326 -0.10906026
000390 d4 2a e7 3c 54 df a8 bd 6a 5c b0 bd 6d f8 ae 3c
       0.028218664 -0.082457215 -0.086113766 0.021358693
0003a0 46 33 83 3e 3d 7e 13 3e 67 7d 5b 3e 70 d6 00 bd
       0.25625056 0.14403625 0.21434556 -0.031454504
0003b0 90 bc 95 3d 3a 61 45 3e 3b e0 85 3c 8e aa c9 bd
       0.07311356 0.1927537 0.016342273 -0.09846984
0003c0 f6 be 32 bc 9d f8 68 3e f2 15 96 bd 6d f1 60 be
       -0.010909786 0.22751088 -0.073284045 -0.21967097
0003d0 83 fa ab bd bb e1 c6 bd e1 f6 77 3d ba 43 39 be
       -0.08397391 -0.097110234 0.060538176 -0.18092242
0003e0 83 e8 cd 3d f7 13 29 3e 86 95 e6 3d 66 7a 5a be
       0.10054114 0.16511522 0.11258988 -0.21335754
0003f0 4a 62 c8 3d 6d 27 0a 3d 7a 20 b2 bd 71 68 81 be
       0.09784372 0.033729006 -0.08697601 -0.25274995

features.11.bias f4 [10]
000000 fc 23 1d bd 1d 4e f5 3a f1 34 fd 3b cc 2c 29 bc
       -0.038364395 0.0018715296 0.0077272584 -0.010325622
000010 1a f4 19 bd d8 a7 9a bd b0 71 fc bd d6 58 6a 3c
       -0.03758631 -0.07551545 -0.12326372 0.014303407
000020 39 d6 61 bd ab 19 8b bd
       -0.05513594 -0.06792005
