models/lenet_mnist.pth (torch, 250672 bytes, 10 tensors)

features.0.weight f4 [6, 1, 5, 5]
00000000: 10de 7dbe 8b8d a1be 57b8 5abe 6cde 953e
00000010: cdf5 dd3d 93ab a6be 376c cb3b 55fd 923e
00000020: 7454 9b3e 52a1 783e 556c 133d 1095 c93b
00000030: 736a 993e dc95 b93e 2716 f93e 4c2a 68bd
00000040: c276 a93e 3d4c ff3e 4ba1 263f a1d9 fa3e
00000050: ef97 213c 0616 c5bb a981 923e 12e4 be3e
00000060: d839 973c 4dc5 02bd b4be a03e 4578 273e
00000070: d24d 313e 8870 c1be 93f5 5a3d 8ba4 9c3e
00000080: 7439 823e 4126 c4bd 0bdc c1be 71b0 5d3e
00000090: f997 1a3f 962a 0c3f 95b4 c43e 5850 f43d
000000a0: 7a4e c93e 4c18 253f 285d 363f 55f7 023f
000000b0: ebeb ad3e a29d 3bbd 0d1f a33e dc72 923e
000000c0: c376 853e 3c7e 013e 4f06 1fbd 22e7 adbd
000000d0: 4dc7 95bd 9237 0dbe 7924 59bc 9ccc 023d
000000e0: 2109 6fbe caad a1be ee51 79be 941b 64bd
000000f0: 39b5 013d 8ff5 0a3e 1bcf 4d3b c434 c53e
00000100: 04b9 aa3e bc3d e23e dfb3 083f 5988 273f
00000110: 164f bd3e f0d6 723e a67f 5b3e c12f f43e
00000120: 317e 183f 4a79 663e 6fe8 823e 6db0 06be
00000130: 24c9 fd3d 4834 223e 003a 833d deb8 243e
00000140: 1d5f 933d 6dfb 81bd 9c46 873c dbd3 ebbd
00000150: dfd5 febd 19c0 7fbd b933 3c3e 1b29 a13a
00000160: 0002 9d3d dabf 9ebd 40bb 90bc d76d 1bbe
00000170: 27a7 92bd 07cf 353e 55bb 1dbe aa05 febd
00000180: 7d2a 34be 4e9b 1bbe d530 87bd 9aff 1dbe
00000190: fa43 fabd 9c05 48bd 0ce1 bb3e 1ad3 233e
000001a0: bc4b f5bd a007 35be 8a71 b13e 8095 d63e
000001b0: fa6d 0b3f f6b7 4f3d 28e5 d93c 1a8d 813e
000001c0: b75d 393f 994b 613f 1a4d 223f b876 133e
000001d0: 4749 80bd e96b a13d 38cc e73e d9fd 173f
000001e0: 31d1 51be c505 6dbe 72e2 24bd 496f 03be
000001f0: 4698 fdbb a801 32be feb1 3d3d f04b 983d
00000200: 1a60 273e 3643 a8bd 7690 ccbd 507d 1abe
00000210: a2e6 34be 87c3 65be 12f5 42be 81d3 44be
00000220: 7bb1 23be 1da4 22bd f91c f63d 3880 babd
00000230: 9f08 84bd 9540 d1bd 05e3 f9bd ba90 1abe
00000240: 1c31 503d 1283 1d3e e5a3 11be 1b31 33be
00000250: 4ea7 ac3d fbd4 0c3e
-0.24791741 -0.315533 -0.21359383 0.29271257 0.108378984 -0.32552776 0.0062079686 0.28708902
0.3033787 0.24280289 0.035991985 0.006151803 0.29964027 0.36247146 0.48649713 -0.056680962
0.33098418 0.49862853 0.65089864 0.48994163 0.009862884 -0.0060145883 0.28614548 0.3728338
0.0184602 -0.031926442 0.31395495 0.16354473 0.17314842 -0.37781167 0.053456854 0.30594286
0.25434458 -0.09577609 -0.37863192 0.21649338 0.6038814 0.5475248 0.38419023 0.11929387
0.39317685 0.644902 0.71235895 0.5115865 0.33969054 -0.045804627 0.31859627 0.28603256
0.2606717 0.12645811 -0.038824376 -0.08491351 -0.07313404 -0.1379073 -0.013253325 0.031933412
-0.23343326 -0.31577903 -0.2434766 -0.055690363 0.031666968 0.13570236 0.0031403962 0.3851682
0.3334428 0.44187725 0.5339946 0.65442425 0.369744 0.23714805 0.21435413 0.47692683
0.5956755 0.22507206 0.25567958 -0.13153239 0.1239188 0.15840256 0.06407547 0.16086146
0.07195876 -0.06346784 0.016513161 -0.115150176 -0.124431364 -0.062439058 0.18379106 0.0012295576
0.07666397 -0.077514365 -0.017667413 -0.1517862 -0.07160788 0.17754756 -0.15403493 -0.12403424
-0.17594333 -0.15195963 -0.06601111 -0.15429536 -0.12219997 -0.048833475 0.36695135 0.15998498
-0.11977336 -0.1767869 0.34656936 0.41910934 0.54464686 0.05071255 0.026598528 0.25302964
0.7240862 0.8800598 0.633989 0.14400756 -0.062639765 0.0788191 0.45272994 0.59371716
-0.20489956 -0.23146732 -0.040255018 -0.1283542 -0.0077390997 -0.17383444 0.046312325 0.07436359
0.16345254 -0.082159445 -0.09988491 -0.15086865 -0.17666104 -0.22437869 -0.190388 -0.19221307
-0.15985672 -0.039707292 0.12017245 -0.09106487 -0.06446957 -0.10217396 -0.12201504 -0.15094271
0.050828084 0.1538203 -0.14222677 -0.17499201 0.08430348 0.1375312

features.0.bias f4 [6]
00000000: b9f3 0dbc dfa1 23bb 25e8 cd3b 9256 87bd
00000010: 7c6b 073d f4d6 343e
-0.008664065 -0.002496831 0.0062837773 -0.06608309 0.03306149 0.17660123

features.3.weight f4 [16, 6, 5, 5]
00000000: 8206 ba3c 56d3 6bbd 6634 cbbd 28b2 a0bc
00000010: 09cd 953d 743c 843d 2930 3b3d 4f32 123d
00000020: 6e63 a23d 5e08 373d 63ff 54bd f1f9 87bc
00000030: b2b9 893c 57fd c3bc 976a 38be 7db2 58bd
00000040: a189 86bd 2b37 3cbe f347 29be efc2 11be
00000050: 6800 bfbc 2454 21bd f042 2dbd f068 273e
00000060: ef89 5e3e e772 813c edfc 33bd de40 103d
00000070: 4ce4 613d 3b42 aa3d 5db5 f63c 3b29 2c3e
00000080: 0b51 313e 2e39 9c3d 34f4 d63d 74af 033e
00000090: e1d9 34bd 2587 5ebd 91a3 b6bd dba6 69be
000000a0: c9e1 5e3d 10c7 b0bd b252 5cbe 47a4 58be
000000b0: cfb6 7dbd 6b2d e8bd 87ff c33c 98ed 443d
000000c0: 57a3 313b 03d6 3a3e 3189 6bbc 851c 74bd
000000d0: ee1f c03c e06b be3d 5e37 a23d f2f1 873d
000000e0: e1b1 f13d 490a d83d bc05 a63d 5bb2 ae3d
000000f0: 6350 ce3c c431 db3b 7fb9 323d e590 49be
00000100: dd58 cebd bef1 8dbd dfc6 2ebe f14f 28be
00000110: 4534 9cbd da7e a83d d0dd 30bd ab8d 20bd
00000120: ae10 373e c7dd 123e 3817 503e e6d6 aa3c
00000130: 6647 4dbd 19ec 93bd b8b9 443d e5f8 c43c
00000140: 0585 8bbd 6e76 bcbc 8aa2 de39 53e5 d13c
00000150: 1bee ea3c cbbe a43d c7ea ebbc 32db ac3d
00000160: 41aa 2fbd 21df dabc 45ad 7e3d e2a5 303c
00000170: 3133 cc3d 7090 9c3d 1272 d83b 7bb5 5b3c
00000180: ac52 0d3d 5788 19bd a12c 573c 655d d13c
00000190: 1f3b adbc 6cc3 0b3b ec66 bebd f8df 00bd
000001a0: 4815 f9bd 1226 873d 01bc ae3d 89cc 7c3d
000001b0: 6bd4 aa3d 7cf2 f53d da1c 433d f7e3 0b3e
000001c0: 18d7 c83d cc73 013d a82e 60bd 161b 453d
000001d0: 7676 8cbd 5e2b 17be 7013 90be 77bb 5bbe
000001e0: 3fe2 bfbc 7851 cbbd a760 72bd 4ceb bebc
000001f0: 6999 923d 4fe7 8ebd 035d 69bb 01bf 413c
00000200: ce01 e739 a3a7 013d 023b 033d 861a 1f3d
00000210: 3f98 7cba 97a6 9f3d 55d5 783c 18cc 8d3c
00000220: 091b d93c 761e 7abd a766 09bc c877 143d
00000230: 7416 9c3d 7651 01bd 6ab7 5c3d 55e2 24bd
00000240: 8d09 10bd 7e1b 4e3d 6c33 cc3d a778 95bc
00000250: 20d9 3dbd b172 8d3d 37a1 873d a7c1 d9bc
00000260: 3aff 5dbd b43b 1bbd 4e04 e73d 6e00 7abd
00000270: 4719 74bd eabf 533b 8618 053e 7f87 3abd
00000280: d73a c3bd 709e 09bd 37bc c93d 8919 fe3d
00000290: 2b19 27be 5793 c03a f221 e3bd 7420 d63c
000002a0: b3c9 883d 8e56 0ebe 95bf 153b 01c9 31bd
000002b0: 5d4b bd3d a72c 623d 0b97 d7bd c3a0 3fbd
000002c0: 50f0 5dbd f96d 8ebc 17c0 58bd 247b 2bbc
000002d0: 3895 abbd e26b ccbb f4f0 09bd 2812 92bc
000002e0: 2343 36bd 0daa edbc e75a 07be a3f9 90bd
000002f0: 8b47 683d 8423 d63b 00f5 513d c09b b7bd
00000300: ca19 5cbd e697 0e3e 59f5 fa3d 428b 06bd
00000310: 183d 1abe 99f9 9d3c 1f89 dc3d f0dc cb3d
00000320: 2541 8cbd 2813 8cbd bfcd 6a3d 688a 403d
00000330: 916f f9bc ffac 173d 4c92 9a3c 75b6 2f3c
00000340: 191a 053c 87f6 bbbc 4576 82bd 1af7 0d3d
00000350: 215b aa3c a227 643d 9f9a 84bd e678 dc3c
00000360: e80f 78bd 1081 4e3d a59e 7fbd 0eda 17bd
00000370: 48f8 68bd 1a64 c5bd 24d6 9ebc bb7d a23b
00000380: 650d 863c b7bc a83d dc74 08bd 03db 39bd
00000390: b665 563d 966f 36bd 2b62 093d 23aa 0c3d
000003a0: 4635 c23b c030 133d 6d49 6a3d 318a 7d3c
000003b0: a826 1c3c 18c9 403d 34a0 963d 1b21 99bd
000003c0: baae c83c c199 9fbd fd8b 6ebc f641 32bd
000003d0: 0192 81bd 54a0 103d 3136 903d 342c b93c
000003e0: 17f0 c63c b529 943c 3bda 703c 8e99 98bd
000003f0: 218b dabd 3d07 81bd ce80 b03d 9cad 6ebd
0.022708181 -0.057574593 -0.099221036 -0.019616202 0.07314498 0.06456843 0.045700226 0.03569251
0.07929121 0.044685714 -0.05200137 -0.016598674 0.01681218 -0.023924513 -0.18009411 -0.052904595
-0.065692194 -0.1838042 -0.16531353 -0.14234518 -0.023315623 -0.039386883 -0.042300165 0.16348624
0.21732305 0.01580186 -0.04394238 0.035218112 0.05514936 0.08313414 0.030115778 0.16812603
0.17316072 0.07628094 0.10495797 0.12859899 -0.044153098 -0.054328103 -0.089179166 -0.22817557
0.054414544 -0.08631718 -0.21515921 -0.21156417 -0.061941918 -0.11336788 0.023925556 0.04807815
0.0027105415 0.18245701 -0.014375971 -0.05959751 0.023452725 0.09297919 0.07920717 0.06637944
0.11801506 0.10548837 0.081065625 0.08530112 0.025184816 0.006689282 0.043633934 -0.19684179
-0.10075543 -0.06930874 -0.17068051 -0.16436745 -0.07627157 0.0822732 -0.043180287 -0.039197605
0.17877457 0.14342414 0.20321357 0.020854425 -0.05011692 -0.072227664 0.048028678 0.024044463
-0.06812481 -0.02300569 0.0004246424 0.025622046 0.02867799 0.08044203 -0.028798474 0.08440246
-0.042886976 -0.026717724 0.06217696 0.010781737 0.099707015 0.07644737 0.006605395 0.0134099675
0.03450267 -0.03748354 0.013133199 0.02555723 -0.021146355 0.0021326197 -0.092969745 -0.031463593
-0.12162262 0.06599058 0.08531953 0.061718497 0.08341297 0.12009141 0.047634937 0.1366118
0.09806651 0.031604573 -0.054731995 0.048121534 -0.06858532 -0.14762637 -0.2813983 -0.21458231
-0.023423312 -0.09927648 -0.059174206 -0.023305558 0.07158167 -0.06977712 -0.0035608418 0.011825324
0.00044061098 0.03165401 0.032038696 0.038843654 -0.00096357235 0.07795446 0.015187581 0.017309234
0.02650215 -0.061064206 -0.008386291 0.036247045 0.0762147 -0.031571828 0.053885855 -0.04025491
-0.03516536 0.050319187 0.099707454 -0.018246008 -0.046349645 0.06906641 0.06622546 -0.026581598
-0.05419848 -0.037898734 0.11280118 -0.061035566 -0.05959442 0.0032310435 0.12997636 -0.045539375
-0.09532707 -0.033598363 0.09850352 0.12407214 -0.16318195 0.0014692348 -0.11090459 0.026138522
0.06679096 -0.13900205 0.0022849787 -0.043404583 0.0924289 0.055218365 -0.10526856 -0.046784174
-0.054184258 -0.017386423 -0.052917566 -0.010466371 -0.083780706 -0.0062384466 -0.033677056 -0.017830923
-0.04449762 -0.02901175 -0.1321827 -0.070788644 0.056708854 0.0065349955 0.05125904 -0.08965254
-0.053735532 0.13925132 0.122538276 -0.03284765 -0.15062368 0.019284056 0.10768341 0.0995425
-0.06848363 -0.06839591 0.05732512 0.047006994 -0.030448707 0.037030216 0.018868588 0.0107246535
0.008123898 -0.022944702 -0.063702144 0.034659483 0.020795407 0.05570186 -0.06474804 0.026913118
-0.060562044 0.050416052 -0.062407155 -0.037073188 -0.056877404 -0.096382335 -0.01938922 0.004958836
0.016363809 0.082391195 -0.03331457 -0.04537488 0.052343093 -0.04454001 0.033540886 0.034341943
0.005926761 0.035935163 0.05719893 0.015474842 0.009530701 0.047066778 0.07354775 -0.074770175
0.024497379 -0.07792998 -0.014559743 -0.043519937 -0.06326676 0.03530915 0.07041586 0.022604086
0.024284406 0.018086294 0.014700468 -0.07451163 -0.10671068 -0.06300209 0.086183175 -0.058271036

features.3.bias f4 [16]
00000000: 813f 4fbc 7203 2cbd c683 0bbc a81e 4f3d
00000010: c030 62bb f157 fcbb f551 3a3c 76f7 c7bd
00000020: c632 9dbd cd37 8b3d 81f9 21bb 50ce 81bd
00000030: b492 3ebd 04ea 17bc b146 df3c 4a23 cc3d
-0.012649418 -0.041995473 -0.008515304 0.050566345 -0.003451392 -0.007700913 0.011372079 -0.09763996
-0.076757 0.067977525 -0.0024715366 -0.06338179 -0.046526626 -0.009272102 0.027255388 0.09967668

features.7.weight f4 [120, 400]
00000000: 48be 80bd 189b 7c3b b81c 3fbd 7a7e 073d
00000010: 4483 01bd e987 2bbd ed9a a9bd 1e55 9bbc
00000020: d93a 843d e817 c53c 8877 473c 4dbd 92bd
00000030: 2c3b 053b 14fd 6d3d 7f13 afbb 7c9e 48bd
00000040: a42e 2dbb b842 0c3d 741c 6b3d cd4a a33c
00000050: 8f16 90bc a3bb 9dbd dfa9 bd3a afed fe3a
00000060: 0834 28bd 32b1 0b3d 014f fd3c 180a a5bc
00000070: 1420 3abd 5ac1 b73c 265a 523d 0f7c 143c
00000080: 2f1c 163d d622 79bc 21ad 0dbd 1d53 203d
00000090: 2870 93bc a069 e63c 2640 b33c 96be b5bb
000000a0: 1ddf 21bb 9834 423d bc76 a8bb 3ded ab3c
000000b0: 71cc 003d bafd 6b3d 606c bd3c 9104 793c
000000c0: 41bf 2ebc 3a4f 473c 4667 f33c 83fe 18bc
000000d0: 1ded 153c 1597 fa3c b925 003d eb00 efbc
000000e0: 0651 763d b5ef f03d 1280 a5bb c5c3 29bc
000000f0: c2a3 08ba ee53 823b 706f e43c 1ccd 333d
00000100: 29ef 69bd dab7 3f3d 8da2 8fbd 5a8b 06bd
00000110: a566 adbd 76e5 e1bc cfae 773c 8834 f5bc
00000120: f7fb 523d 28db 0ebd 12e9 4a3c 24f3 b2bb
00000130: c03e 5a3d 6f0a a53a 5032 3e3b 8706 8cbb
00000140: 2df3 873c cf63 073d 6a06 ab3d 474e b4bc
00000150: 1e18 8f3d d089 44bd 7763 08be 7e81 40bd
00000160: d00f b83c 0ac4 303d a3e2 bfbd e8cd 09be
00000170: c404 b0bd fcc0 57bd 8c40 92bd 9f08 4bb9
00000180: 341d ba3d 6304 c03d 5e56 84bb 8a0e ac3b
00000190: 46f3 be3b a0ce 5d3d df3a 2fbc 34fe 6fbc
000001a0: 9c96 4a3d 416a ae3c 78e7 19bd 3035 a43d
000001b0: d85d 41bd 47eb 88bc 419b 33bd 6f8a c63c
000001c0: b12e 003d fd27 4bbd 72d3 77bd ccf8 37bd
000001d0: d943 583d 8f20 5abd 756b 673d b2d5 a03c
000001e0: bd8c 60bd 9dfc 14bc 0159 27bd 47e3 503d
000001f0: 5134 0ebc 648a 2e3d c856 203c 9912 183d
00000200: ebf1 eabc 2173 0dbb f421 753d 6b6b 89bb
00000210: ca1c 923c f448 06bd c23a fe3c d302 9ebc
00000220: 9103 c63c 235c 97bd fd7d 21bc 97e1 10bb
00000230: eef0 873d f735 a5bc fb30 fbbb 9f73 edbb
00000240: fee1 f0bc 6740 dd3c bd68 703d f56d 31bc
00000250: d083 173c 09c8 00bb 030c f2bc 8fbf 85bd
00000260: 064d 7d3c 6ecf d23c 6a98 03bb 0a99 8fbc
00000270: 59b1 6e3d e369 51bd b02d 04bd f6b0 a13d
00000280: ed96 ffbc 5f86 30bd 4b76 68bd eaff dfbc
00000290: 035f 8f3d 3872 a6bd 39ac 14be d69a b0bd
000002a0: 7d73 6abc f0a0 463d 6495 17bc 730c 37bc
000002b0: 2911 e5bc dba7 36bd e322 fc3b c514 ec3c
000002c0: 108e c53d 9a47 a43d 15b8 88bd 3382 e3bc
000002d0: cc79 a03c aeec cc3d 68bc 943d 9d1a 07be
000002e0: 4f1e 333d 5c3a a73a 0e69 d73d 8f00 ff39
000002f0: bfd5 8cbd c68d 30bd 2110 af3d bce8 203e
00000300: 0abe 1dbd e8db e3bc addf 723c 5343 843d
00000310: 51b7 d03d 3666 6fbc 3c0d e0bc c61b 323b
00000320: 4e76 413d a49e 3dbc a6df 18bd 86c9 be3a
00000330: 275b 273d 6d01 c33b a5cf 29bd 1f0b fbbc
00000340: 99d1 3bbc 268f 163d 9aa6 493d 628c 57bd
00000350: 0d03 c53c 4a37 02bb 6d16 2e3c 9372 ddbc
00000360: ffdd a53c a1ca 623c fc74 8fbc 98c0 9ebc
00000370: 110f c6bc 7374 f73b 6eb7 1cbd 3be8 2ebd
00000380: 65a5 3b3c 8a16 03bd 64f1 993d 5964 e03c
00000390: 9340 7fbc 91de d43c e697 5a3c d6ef 77bc
000003a0: 43fa 123d 292c e73c 3b13 763d a867 8abb
000003b0: 63d3 1b3b b2b0 84bd e950 c5bb 7ea6 20bb
000003c0: a8a6 80bd 4ebe 64bd cf00 82bd e2f2 ea3a
000003d0: 176e ebbc 4441 a93c 37bf eebb 4357 673d
000003e0: dc9a 893d 9a34 bc39 7c1e 0d3d d22f 083c
000003f0: d2a7 523b aa03 07bc 74d9 a13d 8ce9 52bd
-0.06286293 0.0038544592 -0.046658248 0.0330796 -0.031619325 -0.04187766 -0.08281503 -0.018961485
0.06456537 0.024059251 0.012174495 -0.071650125 0.0020329459 0.058102682 -0.0053429003 -0.048979267
-0.0026425505 0.034243315 0.057400182 0.019933129 -0.017588882 -0.077018045 0.0014470181 0.0019449497
-0.041065246 0.034104533 0.030921461 -0.020146415 -0.04544075 0.022431064 0.051355503 0.009062781
0.03664797 -0.015206059 -0.034588937 0.039141763 -0.017997816 0.028126538 0.021881174 -0.0055464013
-0.0024699636 0.04741344 -0.0051411074 0.020987147 0.03144497 0.05761502 0.023122966 0.015198843
-0.010665716 0.012164885 0.02971233 -0.009338024 0.0091507705 0.03058962 0.031285975 -0.029175242
0.060135864 0.117644705 -0.0050506676 -0.0103616165 -0.000521239 0.0039772904 0.027885169 0.04389678
-0.057112847 0.046806194 -0.07013426 -0.03284774 -0.084668435 -0.027575236 0.015117361 -0.029932275
0.051509824 -0.034876972 0.01238467 -0.0054611135 0.0532825 0.001259161 0.0029021688 -0.004273239
0.016595447 0.03305417 0.08350833 -0.022009982 0.06987022 -0.04798299 -0.13319193 -0.046998493
0.022468477 0.043155707 -0.093693994 -0.13457453 -0.08594659 -0.05267428 -0.071412176 -0.000193628
0.09087601 0.09375837 -0.004038616 0.0052507566 0.0058273403 0.05415213 -0.010695188 -0.014648009
0.04946004 0.0212909 -0.03757426 0.08017957 -0.047208637 -0.016713751 -0.043849234 0.024235932
0.03129453 -0.049598683 -0.060504384 -0.044915006 0.05279908 -0.053253707 0.056498963 0.019633148
-0.05482172 -0.009093431 -0.040856365 0.050998 -0.008679465 0.04261245 0.009786315 0.03712711
-0.028679809 -0.0021583515 0.059846833 -0.0041937134 0.017835993 -0.032784417 0.031033877 -0.019288456
0.024171622 -0.073906206 -0.009856698 -0.0022107118 0.066377506 -0.020167334 -0.007665751 -0.007246449
-0.029404636 0.027008248 0.058693636 -0.010829438 0.009247735 -0.001965048 -0.029546743 -0.065306775
0.015460258 0.025733676 -0.002007986 -0.01752903 0.0582746 -0.051126372 -0.032270133 0.07895081
-0.031199897 -0.043096896 -0.056753438 -0.027343709 0.07000544 -0.08127254 -0.14518823 -0.086232826
-0.014309761 0.048493326 -0.009251926 -0.011172402 -0.027962284 -0.044593673 0.0076945885 0.028818497
0.09646237 0.080214694 -0.06675736 -0.027772045 0.019589327 0.100060806 0.07262498 -0.13193746
0.043730076 0.0012758481 0.105180845 0.00048637806 -0.06876706 -0.043103956 0.08547998 0.15713781
-0.038511313 -0.02781482 0.014823836 0.064581536 0.10191215 -0.014611771 -0.02735006 0.0027177199
0.047231965 -0.011573467 -0.037322663 0.0014555908 0.040858414 0.0059510977 -0.04145779 -0.030644951
-0.011463546 0.03675761 0.04923115 -0.052624114 0.024049306 -0.001986938 0.010625464 -0.027032172
0.020247458 0.013842256 -0.017511837 -0.019378945 -0.024177106 0.0075517236 -0.03826087 -0.04270194
0.011453007 -0.032003917 0.07516745 0.0273916 -0.015579361 0.025985034 0.0133418795 -0.015132865
0.0358832 0.0282193 0.060076933 -0.0042237826 0.002377712 -0.064790145 -0.006021608 -0.00245133
-0.06281787 -0.05584555 -0.063478105 0.0017925168 -0.028739018 0.020661004 -0.007285978 0.056479704
0.0671899 0.00035897346 0.0344529 0.0083121825 0.0032143486 -0.00824062 0.07902804 -0.05149226

features.7.bias f4 [120]
00000000: 6607 683c 829c d4bc 4814 293b eab5 373d
00000010: d6cc 393d 56f3 813c eaf2 9a3c f5c7 913b
00000020: 90d0 46bd b6b1 3cbc b500 cd3c 16bd 913b
00000030: dacf 2f3d 6e49 0a3d a7b5 133d 3cca d8bc
00000040: 0eac 923c ec21 233d 405e a23c 3c8d 863d
00000050: e0a5 81bc 0e9c 8a3c 2f26 47bc 204d a03b
00000060: 06bf b8ba 730a 32bc d9b1 dcbc e376 ae3c
00000070: 67cd a83c beb6 0b3d fcc1 26bd 24b2 8b3c
00000080: ef5b 163b 87a4 a0bb db6c 5c3c 99cd ad3c
00000090: 09e1 95bc 74b9 9b3c 821c 4ebd 5108 f53c
000000a0: 3731 37bc 6b1c 6b3c d847 17bb eb24 2c3d
000000b0: 6245 03bd 6d75 d9bc 25e8 eb3c 620a b83c
000000c0: 2b64 7b3a fa51 bcbc 56cf 0fbd a944 8bbc
000000d0: 1d21 c8bb ee24 573c 6d90 d13c 3b4e 8d3d
000000e0: b2ed 933b 8ece 423d 6e97 67bd c798 e2bc
000000f0: aedd 00bd 144f 903c 6707 8bbc eab4 8cbc
00000100: b5fd a5bc 9b1d 02bd 87a2 3abd 007f a73c
00000110: 9118 303d aa7c 313d 4317 e33c c58e 0c3c
00000120: b9ce d3bc ded4 523d d64a ddbb bd3f 0fbd
00000130: ce91 aebc 24c7 39bc db0b b1bc 27bd fb3c
00000140: afeb 3dbd aadf 013d 3a73 a43c cd82 acbc
00000150: 6037 c6ba cd3c 143b 75ce 023d 277d e23c
00000160: 9386 7b3d 4c53 f83c f345 30bd a960 4a3d
00000170: 7061 1a3d d3a3 51bc 92ef 06bd f34b d0bc
00000180: a9b0 17bd 1728 b63c 96e2 013a c21d f7bb
00000190: abc6 46bd 8d8a 303d 43a7 f8bc b41c 053d
000001a0: 8180 6d3c 28d5 3cbd efb0 6d3d 17cc 21bd
000001b0: 6244 ee3c 38fb 39bc dad0 2cbc 51aa 113d
000001c0: 5ec1 84bb 7348 98bb 43ce 803d c860 babb
000001d0: 0fd2 3abb e946 08bc 5e5c 26bc 9630 a23c
0.01416192 -0.025953535 0.0025799442 0.04485122 0.045361362 0.015863102 0.018914659 0.0044488856
-0.048538744 -0.011516979 0.025024751 0.0044475896 0.042922832 0.033761434 0.03606191 -0.02646362
0.017904308 0.039827272 0.019820333 0.06569907 -0.015826166 0.016920116 -0.0121551 0.0048920065
-0.0014095015 -0.010866749 -0.026940273 0.021296924 0.020605756 0.034109823 -0.04071234 0.017052718
0.002294298 -0.0049024257 0.013453688 0.0212162 -0.018295782 0.01900933 -0.050320156 0.029911192
-0.011181167 0.014350037 -0.0023083594 0.042027395 -0.03204859 -0.02654525 0.028797219 0.022465888
0.00095898163 -0.022988308 -0.03510984 -0.017000513 -0.006107463 0.013131363 0.025581563 0.06899687
0.0045144195 0.047560267 -0.0565409 -0.02766074 -0.03146141 0.017615832 -0.016971303 -0.01717611
-0.020262579 -0.031766515 -0.045565154 0.0204463 0.04299218 0.04333178 0.027721053 0.008578961
-0.025855409 0.051472537 -0.006753306 -0.034972895 -0.02130976 -0.011338983 -0.021612098 0.030729843
-0.046367344 0.031707443 0.020074476 -0.021058464 -0.0015122704 0.0022619248 0.031935174 0.027647568
0.061407637 0.030313157 -0.04303546 0.04940859 0.03769058 -0.012795406 -0.032943316 -0.02542684
-0.03703371 0.022235913 0.00049547234 -0.007541389 -0.04852931 0.043100882 -0.030353194 0.032498077
0.01449597 -0.04610172 0.058030065 -0.039501276 0.029085342 -0.011351399 -0.010547841 0.035562817
-0.0040513715 -0.0046473085 0.06289341 -0.0056878068 -0.0028506552 -0.008317688 -0.010153858 0.019798558

features.9.weight f4 [84, 120]
00000000: 7abd e3bd c153 eb3c 3209 373c 667c 24bd
00000010: 8612 cfbd 3a52 2f3d ec41 c93d c6c0 a23d
00000020: 91ef 32bd 9651 99bd dc40 553d aa2b 04bd
00000030: bd10 aebc df26 80bd 7c7b 8abc fc47 5b3d
00000040: f4eb 2b3a 0d68 64bb 487f 683d 5bd6 9c3d
00000050: f678 a63d 4dbb 893d 18d0 82bd b161 2bbe
00000060: ee6c 14bd 3a8a 8b3d 08fb f1ba 8886 913d
00000070: 05d9 a6bd cd99 69bb abfb c6bb 0675 65bd
00000080: 2c29 2dbc 4115 9e3c 666b c1bc 3e88 aa3d
00000090: c43b aebd 4c12 21bd a5ab 84bd 3374 b0bd
000000a0: 9855 debd 9cd6 d53c f3b9 3b3d e4fe 52bd
000000b0: ef08 dd3d ee60 eabd a7a2 61bd d3f7 8cbd
000000c0: 74c7 10bd 6ec7 3dbd 03cc 63bd 65b0 b0bc
000000d0: 0df1 1ebd 0d7b b6bd 79a8 23bd 4773 2fbc
000000e0: 3bf2 c83a 6db9 c4bc de23 fb3c beea a5bd
000000f0: b2af af3c b56b f63d 69f8 12bc 808e 2cbd
00000100: 8085 993d f164 473d 514a 133d 2001 413e
00000110: 9ca6 443d 14a9 42bd ee61 3d3d 7d4f c03d
00000120: 2cef 91bd c234 093e 47c3 c43a 2a95 313d
00000130: 66a0 9e3c 1102 8abd f574 853d 365e 203c
00000140: 2ed1 083d c51b ac3d 246d 88bc fe18 b63d
00000150: c7d4 1ebb fb46 2fbd 505b a6bd e09d 0b3d
00000160: f954 58bd 5dd0 8e3d f26d 973c f282 8cbd
00000170: 5b35 1ebd 2930 2ebd 18d8 253d 983d aebd
00000180: 8e26 99bd bd86 803d 14c5 163e 272f bdbc
00000190: 5a54 813c 777f 9c3d c26f bd3d e20a 53bd
000001a0: 7f26 733d 5cc7 39bd 3d1c 113e 16e9 313d
000001b0: 1a83 c63c 11bf 9ab9 935f a3bd 8c66 fb3c
000001c0: b38e 32bd 68d9 043e c9a2 4cbd e8f0 233d
000001d0: 91c2 64bb 0914 983d 9952 f0bd 0045 993d
000001e0: a8ac 7d3c ae3a a1bd d0a5 96bc 4de7 96bb
000001f0: c71a 093e f896 cb3c 76d9 eebd 5f09 3ebd
00000200: a3fa 3e3d e1d4 41bc 94e7 73bc 5ff6 c33d
00000210: 1a4a cc3d f4fd 893c 6905 0cbd 9b8b 88bc
00000220: e353 babd cd05 60bc 6607 85bd 5ad8 4e3d
00000230: 7a38 10bc 362d 9b3d 6eb4 d03c b9d6 8e3c
00000240: abb1 143c 989f b0bd aea7 5cbd 7bf4 563d
00000250: 7d45 123d 9ac9 663d 2fc3 efb9 25bb 243d
00000260: 0c9f cebc eccf a7bc 3bf6 98bd 616d 303d
00000270: 0e11 96bd a937 f1bd d0fa 8a3b d01f a2bc
00000280: cbd3 b53d 312e 42bd e771 3f3d 940e 5dbd
00000290: f0c9 78bd b4f0 55bd 860a dc3d 6d90 343d
000002a0: 0087 87bd c4bd 37bd 5609 b6bd 65df 18bc
000002b0: 0289 56bc 4f3a 0dbd eaed 153d ca0f a53d
000002c0: 430f c9bb 97b1 0f3d 6872 c93d 4b25 823d
000002d0: 8224 143d 5bc2 d43c 93dd 6fbc 744b c63d
000002e0: 524a 1fbd 87e8 00bd 2e61 c83c c331 96bd
000002f0: 263b 793d 07a2 36bc 6a5c 33be 1b86 9f3d
00000300: c972 67bd 8044 ae3d 36f4 813b 06ee bfbc
00000310: af97 673d 15a8 153d 1531 d23c f92f 83bc
00000320: 21de b4bd e170 db3d 726e 203c f2d3 4abd
00000330: b5c1 20bd b639 593e 5f17 843d 5723 fbbd
00000340: a382 acbd 9a31 d4bd ad04 b0bc d5db cc3d
00000350: 3dfb 113d 609e b3bd 40b2 353d 181a 9b3d
00000360: 3837 573c 418b 003e f01f bf3d ec37 723d
00000370: 8fa3 9d3d 1a3a f6bd 6ba3 8ebd 8205 9bbc
00000380: 0137 0dbc b6e8 85bd 3579 e9bd 8505 20bd
00000390: a467 8c3c 4b43 073b fb6c 233c 8d45 88bd
000003a0: 3c76 9f3d d01f e23c 0cb5 553c 9247 5abd
000003b0: c3fc b53c e3df 2d3d 7bd9 8a3c 9a99 1cbd
000003c0: 7925 4a3c 275f 8bbd 3127 88bd 03c0 6d3c
000003d0: 4e7e 26bc 7108 3d3a 9253 9f3d 009b ba3d
000003e0: fe83 83bc 649a d2b9 3a89 8d3d 5731 6a3d
000003f0: ac3f a7bd 9f00 983c e848 98bc 5906 b8bd
-0.11120124 0.02872646 0.011171626 -0.040157698 -0.10110955 0.042803027 0.09827027 0.07946925
-0.0436855 -0.074862644 0.052063808 -0.032268204 -0.021248216 -0.06257414 -0.016904585 0.053535447
0.0006558292 -0.0034852058 0.05676201 0.076580726 0.0812854 0.06725178 -0.06387347 -0.16736485
-0.036236696 0.06813474 -0.0018461654 0.07105738 -0.08146862 -0.003564465 -0.0060724816 -0.056019805
-0.010568898 0.019297244 -0.023610782 0.083267674 -0.08507493 -0.03932409 -0.06478051 -0.08615913
-0.108561695 0.02610331 0.045831632 -0.051512614 0.107927196 -0.11444269 -0.055086758 -0.06883206
-0.035346463 -0.04633277 -0.055614483 -0.021568486 -0.038804103 -0.08910189 -0.03995559 -0.010708637
0.0015330979 -0.0240142 0.030656751 -0.08101414 0.021446083 0.12032262 -0.008970358 -0.042128086
0.07496166 0.04868025 0.035959546 0.18848085 0.048010454 -0.047524527 0.04623597 0.09390161
-0.071256965 0.13399032 0.001501181 0.043355145 0.019363593 -0.067386754 0.065164484 0.009788087
0.033402614 0.08403734 -0.016653605 0.08891486 -0.0024235712 -0.0427923 -0.08122885 0.03408611
-0.05281541 0.06973336 0.018485043 -0.06860913 -0.038625102 -0.042526398 0.040489286 -0.08507842
-0.07478057 0.06275699 0.14723617 -0.023093773 0.015787292 0.076414995 0.09249832 -0.05152405
0.059362885 -0.04535614 0.14170928 0.04343518 0.024232436 -0.00029515525 -0.07977214 0.030688547
-0.04359312 0.12973559 -0.04995993 0.040024668 -0.003490601 0.074256964 -0.11734504 0.07483864
0.015483059 -0.078725204 -0.018389612 -0.00460521 0.13389121 0.024852261 -0.11662571 -0.046395656
0.046625745 -0.011830539 -0.0148867555 0.09568476 0.09975071 0.016844727 -0.034184847 -0.016668132
-0.09098031 -0.013673258 -0.06495552 0.050499298 -0.008802528 0.07576983 0.02547666 0.017436372
0.0090755625 -0.0862419 -0.05387085 0.05247925 0.0357108 0.056344606 -0.00045731055 0.040217537
-0.025222324 -0.020484887 -0.0746884 0.04307306 -0.07327472 -0.117781945 0.004241325 -0.01979056
0.08878287 -0.047407333 0.046739485 -0.05396898 -0.060739458 -0.052231506 0.10744195 0.044083048
-0.06617546 -0.04485871 -0.088884994 -0.009330605 -0.013094189 -0.034479436 0.036603846 0.08059652
-0.0061358525 0.035081472 0.098362744 0.06354769 0.03616763 0.025971582 -0.01464023 0.0968236
-0.038889237 -0.031471755 0.024460401 -0.0733371 0.060847424 -0.011147029 -0.17515722 0.077892505
-0.056505952 0.08509159 0.00396588 -0.023428928 0.05654114 0.03653725 0.02565817 -0.016014086
-0.0883143 0.10714889 0.009791957 -0.049518533 -0.039247233 0.21213421 0.0644977 -0.122626
-0.084233545 -0.10361023 -0.021486605 0.10002867 0.03563999 -0.08770442 0.044359446 0.07573336
0.013135724 0.12553121 0.093322635 0.059135363 0.07697212 -0.12022801 -0.06964763 -0.018923525
-0.008619071 -0.06538527 -0.114000715 -0.039067764 0.017139263 0.0020639475 0.009974713 -0.06653891
0.07786223 0.02760306 0.013043653 -0.05329091 0.022215253 0.042449843 0.016949406 -0.038232423
0.012338036 -0.06805258 -0.066481 0.014511111 -0.010161949 0.00072110357 0.07779612 0.09111595
-0.01605415 -0.0004016935 0.069109395 0.05717596 -0.08166441 0.018554984 -0.018589452 -0.08985586

features.9.bias f4 [84]
00000000: 4793 c83d 42c6 0e3d 8093 46bd dc77 0e3d
00000010: 10d0 863d 8a51 be3c 1d6f 8abd 4311 5dbd
00000020: 02d9 84bc 3177 ac3d cdfc 65bd 1d40 ef3c
00000030: aae5 87bd 0a9d 31bd 60e5 c1bc 645b 2b3d
00000040: 72aa 07bd 725f cf3d f89d 553d 27d3 a73d
00000050: f9bc 243d fb2b 243d 0f79 2bbc 3f3e 563c
00000060: 2bec 0bbd 5ab9 19ba 5c6b 293c 46a3 903b
00000070: 5b1e 6c3c 7233 a1bd 7046 3f3d 360a a63d
00000080: d915 893d c587 aa3d d7ce 583d ce84 a3bd
00000090: 79fd 23bc 294e 843d 19f9 6a3b 51e7 7abd
000000a0: 6818 463d 03ce ed3b ed86 69bd 2fed b9bd
000000b0: f084 b4bc 6cc3 afbd 2346 893c 9982 97bd
000000c0: c3a0 063d 6b48 9c3d e06d 42bd 25a5 a33d
000000d0: 78c0 1dbd 91e3 a93d ce84 4d3c a4ad bdbd
000000e0: 9c0e 183d 01e7 883d 9171 5fbd ea13 61bd
000000f0: dcdf 2fbb 395b bbbd 4a7d 6fbb 8328 8bbd
00000100: 1a04 81bd b583 013e 58b3 84bd 8858 793c
00000110: 0980 8a3d c175 d23d aa29 13bd 5469 42bd
00000120: c199 b23d eb8e 913d 1e60 fb3d 422b 453c
00000130: 792c bb3d 9b1a 3ebd c633 9fbc d80e bcbd
00000140: ad60 58bd d740 793d 9413 2abc d397 4bbc
0.09793716 0.034857042 -0.04848051 0.034782276 0.065826535 0.02323224 -0.067594744 -0.05397154
-0.016216759 0.084211715 -0.056149293 0.029205376 -0.06635602 -0.043362655 -0.023668945 0.041835204
-0.033121534 0.101256266 0.052152604 0.08194571 0.04021928 0.040081006 -0.010465874 0.013076364
-0.034160774 -0.00058641064 0.010340538 0.004413995 0.014411534 -0.078711405 0.046698034 0.08107416
0.0669362 0.08326677 0.052931633 -0.07984315 -0.010009163 0.0646022 0.003585404 -0.061255757
0.04836312 0.0072572245 -0.05701344 -0.09078442 -0.022036046 -0.08582196 0.016757077 -0.073979564
0.032868158 0.07631 -0.047468066 0.07990483 -0.03851363 0.08295358 0.01254387 -0.09261635
0.037123308 0.066846855 -0.054551665 -0.054950632 -0.0026836311 -0.09148259 -0.0036543184 -0.06794836
-0.062996104 0.12647898 -0.064795196 0.015218861 0.06762702 0.10276366 -0.035928406 -0.04746373
0.087207325 0.071073376 0.12274192 0.012034239 0.09139342 -0.04641209 -0.019433867 -0.09182519
-0.052826572 0.06085285 -0.010380644 -0.012426334

features.11.weight f4 [10, 84]
00000000: 55fc b1bd dd05 a13d cf8a 383c c258 8bbc
00000010: 7619 153e 547e 423e 9a2c a7bd be23 93bd
00000020: f536 d93c 4503 90bb 5f36 a7bd 1fc9 163e
00000030: 2c50 863d 4670 2b3e a378 87ba b403 3abe
00000040: 6018 b2bc 12f7 56be 0e9c 1dbd 4c92 6f3e
00000050: de45 9c3d 95e0 41be 9749 9ebe 60ef 003e
00000060: 7f18 583d 8f4c 9e3e f213 4b3d 5d5f 2c3e
00000070: 5bc1 f5bd 8edf 3bbe ce2a b53d 6134 91bd
00000080: da4d 813e 0e05 19be fc91 b8be 8b2f 693d
00000090: bfc0 b63d ba18 193e b1a5 a53a 818b 7c3d
000000a0: 891c 043d 14ab ad3b c713 30bd 2549 8f3d
000000b0: b0fc 1fbb f827 8dbd 0d78 8abc db3d 743d
000000c0: 155c 14be 3ce8 8abd 65c5 1bbe 0de3 b23d
000000d0: f4b5 bfbc b2b5 71bc dda6 983d c9af 903d
000000e0: 8ce2 25be 817f 18be b67c 3b3e ef95 253e
000000f0: 32e9 89be 09d8 eabd 4751 273d 7bb8 c73d
00000100: 602c cb3d 3476 97bd 0ea3 2d3e de4f c2bd
00000110: 4c40 93bd 81c9 5e3e 386d 20bd f064 093d
00000120: d257 36be 93be 39be e3e8 d0bd 842e 493e
00000130: aa09 1c3e 3fa9 713d 4f9b 533d 7fc1 9f3d
00000140: d0a2 64be 1a04 6e3c b614 03be 4ba0 b8bd
00000150: de75 eebd 3d59 693d a6b0 7abd 25f3 793e
00000160: 5f51 d0bd be2a 133d f880 58bd 054a 2c3e
00000170: 77cc 073e a54c b73d 38f5 f9bd acc4 4dbd
00000180: 1363 9fbc bd2c 56bd 8ab5 8bbd e719 823d
00000190: 3c0f 753e f40a 433e 571a 27be 9b1a 5dbe
000001a0: 66d3 a83d 761e 1abe 93a8 f3bd 451f 8fbe
000001b0: 7bc4 163e e8a1 853e 7a9e a9bc e2b9 883d
000001c0: db6c 653e 57d4 bb3d 7467 d43d 4328 603e
000001d0: f3a1 bebd c17e 4b3e 2a52 a8bc 0c7b 93bd
000001e0: 295e 85bd 1daa 513e 119b 3f3e 5f03 583d
000001f0: ed01 2dbe c1c7 b4bd 102a b83d 9cdc 0a3e
00000200: 657c 463e ef66 3a3e 26eb d4bd 1055 5dbe
00000210: 2719 32be 167c 3abe 3abe e43d f692 6abe
00000220: 4af0 1dba 7a3e 743e d60c 42be 21a6 d63d
00000230: c189 f43d eb71 373e d543 48be b93e 83bd
00000240: c715 ecbc 297d 633d 103b a8bd ba54 c3bd
00000250: d282 66bc 4149 adbd 3e7b e83d 696b f8bd
00000260: aca0 43be a0fe 04bd 8c7b 58bc 74db cc3d
00000270: 0d9b 843e 231a 8b3e a33b 8dbd ba5f 9abd
00000280: ed04 d1bd 069b 49bd fc00 37be 1259 f1bd
00000290: ef2a 2abe be16 f9bd 45ff af3d 1ff8 873d
000002a0: 8cf5 a83d 6c31 6d3d 3c21 8abc eed4 aabc
000002b0: e82d a33e 173e e33d ea69 09be 7a29 253e
000002c0: d7c0 4fbd 233e 853e b907 c1bd d2e2 82be
000002d0: bde6 d7bd 8e8d 3c3e 74bb e1bd 859e 00be
000002e0: ba23 b63d 3d72 41bd 70e9 a1bd dbf4 bb3d
000002f0: 259a a8bc f4e5 89be dda1 5a3e 10b2 063e
00000300: c6ab 11be 2b57 aa3c 9434 4c3e c828 443d
00000310: 86be 14bd b6f0 febd bf94 2abe 1d65 123e
00000320: 9141 483e 901c 1abe 7680 77be cde7 833d
00000330: cc8f 81bd 6610 b3be 04b3 1a3d 42b6 de3d
00000340: af3f 943e 43c9 95bd 6495 613d 9f48 103d
00000350: bf1f e5bd e7c0 403e 2a4c 543e 1f60 0ebd
00000360: 4e07 67be b694 983d 7945 0a3e c870 13be
00000370: 0b5a 813d e7b2 b23d fb0c 86be 5b31 8cbc
00000380: 1ed7 ccbd 9f4e 7c3e 7a39 db3d e4fd fb3d
00000390: 70bf 423d a67e c3bd 18e2 2e3e ac64 17bd
000003a0: fba4 113e 1df1 0abe 8bdb d1bd cc2e 15be
000003b0: 9031 00be 481d 163c 2a4f 88bd f4bb abbd
000003c0: 5e6a ddbc fe70 b73d afaa d3bd 6d25 91bd
000003d0: a7d0 44be 16be 1fbd 5349 7f3d df16 fcbc
000003e0: 85dc e9bc 2fad 063d fc7b 613e 9bd7 933d
000003f0: 7c84 38bd 7d17 a9bd e5d7 143d c86b 4b3e
-0.08690707 0.078624465 0.011263563 -0.017010096 0.14560494 0.18993503 -0.08162804 -0.07184552
0.026515463 -0.004394921 -0.08164667 0.14725159 0.0655826 0.16742048 -0.0010335635 -0.18165475
-0.021740139 -0.20992687 -0.038478903 0.23395652 0.076305136 -0.18933327 -0.3091552 0.12591314
0.052757736 0.30917785 0.04957957 0.16833253 -0.1199977 -0.18346998 0.08846055 -0.070900686
0.2525471 -0.14943334 -0.36048877 0.056930106 0.08923482 0.14950839 0.0012637881 0.06165648
0.032253776 0.005299935 -0.04298761 0.06996373 -0.0024412088 -0.06892389 -0.016902948 0.059629302
-0.14488252 -0.067825764 -0.15212019 0.08734713 -0.023402192 -0.014752792 0.07453702 0.07064778
-0.16199702 -0.14892389 0.18309292 0.16170476 -0.26935726 -0.11466987 0.040848996 0.09751984
0.09920573 -0.07395592 0.16956732 -0.0948789 -0.07189998 0.21756555 -0.03916666 0.033543527
-0.17806938 -0.18139105 -0.102006696 0.1964665 0.15238062 0.058999296 0.051661786 0.07800578
-0.22327733 0.014527345 -0.1280087 -0.090149485 -0.11643575 0.05696987 -0.06120362 0.24409159
-0.1017177 0.035929434 -0.05285737 0.16825111 0.13261591 0.08950166 -0.12204975 -0.05023639
-0.019456422 -0.05228876 -0.06821735 0.06352597 0.23931593 0.19047147 -0.16318642 -0.2159218
0.08243446 -0.15050682 -0.11897387 -0.27953544 0.14723389 0.26100087 -0.02070545 0.06676079
0.22404806 0.0917136 0.103712946 0.21890359 -0.09308233 0.19872572 -0.020546991 -0.07201204
-0.065121 0.2047505 0.18711497 0.05273759 -0.16895266 -0.088271625 0.08992398 0.13560718
0.1938339 0.18203329 -0.103964135 -0.2161448 -0.17392407 -0.18211398 0.11169095 -0.22907624
-0.00060248806 0.23851958 -0.18950209 0.10480905 0.11940337 0.1791455 -0.19557126 -0.06408448
-0.028818978 0.055539284 -0.0821439 -0.09537645 -0.014069276 -0.08461238 0.113516316 -0.12129862
-0.1910426 -0.03246939 -0.01321305 0.10002795 0.25899544 0.27168378 -0.068961404 -0.0753779
-0.10206018 -0.049220107 -0.1787147 -0.11784567 -0.1661794 -0.12162541 0.08593611 0.06639122
0.08249959 0.05790846 -0.01686155 -0.020853486 0.3187096 0.11095827 -0.1341931 0.16129103
-0.050721016 0.2602397 -0.09425301 -0.25563675 -0.10542057 0.18413374 -0.11022082 -0.1256047
0.08893533 -0.047228087 -0.07905853 0.09177562 -0.020581314 -0.26933253 0.21350808 0.13153863
-0.14225683 0.020793518 0.19941932 0.047890455 -0.03631451 -0.12448256 -0.16658305 0.14296384
0.19556262 -0.15049958 -0.24170098 0.06440697 -0.06326255 -0.3497345 0.03776838 0.10874607
0.28954837 -0.07313778 0.05507411 0.035225507 -0.11187696 0.18823586 0.2073218 -0.034759637
-0.2256138 0.07450239 0.13503064 -0.14398491 0.063160025 0.08725529 -0.26181778 -0.017113378
-0.10001968 0.24639367 0.10704322 0.12304285 0.04754585 -0.09545641 0.17078435 -0.036961243
0.14223091 -0.1356854 -0.102469526 -0.14568633 -0.12518907 0.009162255 -0.06655724 -0.083854586
-0.027028259 0.089570984 -0.1033529 -0.070872165 -0.1922022 -0.03899964 0.062325787 -0.030772625
-0.028547535 0.032880004 0.22019953 0.07218858 -0.045048222 -0.08256433 0.036338706 0.19865334

features.11.bias f4 [10]
00000000: 55d4 e6bd e460 9b3d 2d8b 063d 9c92 b83b
00000010: 1497 1e3d 041e 14bd 562d 20bd a4ea f23c
00000020: e483 61bc d159 e9bb
-0.11270968 0.0758684 0.032847572 0.0056327116 0.038718298 -0.036161438 -0.039105736 0.029652901
-0.013764355 -0.0071213027
